Echoes in the Loop_ Diagnosing Risks in LLM-Powered Recommender Systems under Feedback Loops/A-LLMRec/pre_train/sasrec/ml-100k/SASRec.epoch=200.lr=0.001.layer=2.head=1.hidden=50.maxlen=50.pth (torch, 483298 bytes, 28 tensors)

item_emb.weight f4 [1682, 50]
-0.044386 0.042128436 0.002009105 0.015869739 -0.02162776 0.00014605129 -0.0010430403 -0.03326556
0.0062240963 -0.009656906 0.03542862 -0.013006829 -0.049380198 -0.0011252733 0.033444256 -0.0061423173
0.023413027 0.052293096 0.013189686 -0.0050666765 -0.041873235 -0.011431439 0.040110435 0.011142126
0.008295371 0.006899354 0.06891006 -0.018174479 -0.04743846 0.03967977 0.09142491 -0.049581386
-0.02389634 0.0033319911 -0.055398777 0.032942258 -0.03330887 -0.009106775 -0.026706679 0.03317505
0.058045313 -0.01567459 -0.017194265 -0.045779977 -0.025355782 0.037366252 0.016218182 -0.036645483
0.021785794 0.042856436 0.014019766 0.07520795 -0.008117279 0.122693025 -0.013057357 0.06699707
0.024557352 -0.09334384 0.08398342 -0.063663505 -0.052688748 0.015274125 -0.057094578 0.04718137
0.053502545 0.06547141 0.08514385 0.06121278 0.017363768 0.0685416 -0.09189489 0.056817345
0.06912545 -0.07855579 -0.18175174 0.056584213 0.13758776 0.018465225 -0.03943803 -0.024390444
0.08014306 0.10474784 0.14637637 -0.065596126 0.007620436 0.16705567 -0.07023034 0.013529151
0.026115052 0.03565953 -0.080736436 -0.20657219 0.09988282 -0.06349995 0.010666997 -0.041356597
-0.06760446 0.0763801 0.06762659 -0.002396924 0.057061907 -0.00025033712 0.06875082 -0.0089988345
0.07699494 -0.018906867 0.10686002 -0.021875827 0.043473866 -0.0464508 -0.012101955 -0.051042847
-0.21111038 -0.058682755 0.014046884 0.020435952 0.05460175 -0.062362228 -0.042841297 0.06444177
0.11543809 -0.016847702 0.045465577 0.09538321 -0.042349 -0.010699213 0.00842704 0.101418145
-0.06938827 0.03366109 0.047529493 0.04598165 0.08592909 -0.07189397 0.009989991 -0.02102426
-0.106605105 -0.06164458 0.010949855 0.117120534 -0.027139604 -0.106790036 0.015974196 -0.017394561
0.016256722 0.025248341 -0.065185264 0.071885906 -0.11198391 0.018866045 0.030102741 0.014692543
0.008153857 0.17675063 -0.050824866 0.02538564 -0.03400611 -0.035251036 0.095887765 -0.05364779
-0.101184875 -0.13140345 0.042129114 -0.04523117 0.025482167 0.002380921 0.02524755 -0.009898034
-0.0154979685 -0.030448379 -0.09003265 -0.04921366 0.059512768 -0.0024985466 -0.21690714 0.13876824
-0.0027686877 0.0054811505 -0.060389068 -0.14854613 0.10494554 0.05450092 -0.028705157 -0.015198847
-0.13720655 0.13830768 -0.093790196 -0.006313883 -0.07717358 0.010529145 -0.013279403 0.022866547
0.046866506 -0.11905191 -0.013581684 -0.11069353 -0.1727217 0.084268525 0.11022523 0.02695066
0.008526074 -0.118618384 0.0027505974 0.14142273 -0.05459234 0.1286647 -0.042106155 0.06846993
0.08208632 0.020140339 0.022638991 0.045441434 -0.028255625 0.035187814 -0.104589686 -0.063318096
0.0019828742 0.002406064 -0.059327368 -0.04151537 0.045351613 -0.009409755 0.10583808 -0.052283783
-0.07365896 0.0029959795 -0.033779994 -0.113459624 0.008931186 -0.015055418 0.099776246 0.0042695985
0.014964696 -0.030330792 0.044642054 -0.048081927 -0.00013810773 0.070788756 0.02980866 0.08862568
-0.05036663 -0.11428066 0.058942433 -0.15909481 -0.031151436 -0.015797794 -0.039602123 0.036234587
0.07183784 0.12470013 0.029738452 0.017104264 -0.117723815 -0.14644487 -0.062452182 -0.016603675
00000000: 18ce 35bd de8e 2c3d 30ab 033b 4101 823c
00000010: b32c b1bc 5825 1939 a0b6 88ba 7841 08bd
00000020: 81f3 cb3b 0038 1ebc 9a1d 113d 981a 55bc
00000030: e442 4abd e87d 93ba d8fc 083d 7e45 c9bb
00000040: adcc bf3c 4931 563d 8e19 583c 5d06 a6bb
00000050: 4583 2bbd ee4a 3bbc d74a 243d 778d 363c
00000060: 4fe9 073c fa13 e23b b820 8d3d a5e2 94bc
00000070: d54e 42bd 4187 223d fc3c bb3d da15 4bbd
00000080: 42c2 c3bc 895d 5a3b d4e9 62bd 76ee 063d
00000090: e26e 08bd 9534 15bc f7c7 dabc 90e2 073d
000000a0: ecc0 6d3d ff67 80bc fdda 8cbc c983 3bbd
000000b0: eeb6 cfbc 5b0d 193d fedb 843c 9319 16bd
000000c0: 1f78 b23c 3b8a 2f3d 29b3 653c a006 9a3d
000000d0: 56fe 04bc 7b46 fb3d 86ee 55bc c335 893d
000000e0: 802c c93c 0e2b bfbd 80ff ab3d 0362 82bd
000000f0: 28d0 57bd 5340 7a3c 01dc 69bd 4141 413d
00000100: 7c25 5b3d e015 863d e65f ae3d 41ba 7a3d
00000110: 763e 8e3c 8a5f 8c3d 6333 bcbd 4eb9 683d
00000120: a591 8d3d dce1 a0bd 211d 3abe d9c4 673d
00000130: cee3 0c3e 6244 973c c689 21bd 78ce c7bc
00000140: 0b22 a43d 0986 d63d b0e3 153e 4357 86bd
00000150: dab4 f93b a410 2b3e edd4 8fbd 5fa9 5d3c
00000160: 3cef d53c ba0f 123d 2559 a5bd a987 53be
00000170: 5d8f cc3d 430c 82bd a1c4 2e3c 8965 29bd
00000180: 3574 8abd 2b6d 9c3d cf7f 8a3d b615 1dbb
00000190: bfb9 693d ae3f 83b9 3bcd 8c3d d96f 13bc
000001a0: 86af 9d3d 93e2 9abc 6dd9 da3d ef34 b3bc
000001b0: a711 323d 3243 3ebd 4747 46bc 4e12 51bd
000001c0: 522d 58be 545d 70bd e724 663c 4c69 a73c
000001d0: 16a6 5f3d 896f 7fbd 5b7a 2fbd 0cfa 833d
000001e0: ce6a ec3d 3104 8abc 1d3a 3a3d 4658 c33d
000001f0: 2576 2dbd c04b 2fbc 9111 0a3c 51b4 cf3d
00000200: 701b 8ebd 36e0 093d 49ae 423d 4157 3c3d
00000210: 97fb af3d 253d 93bd 0fad 233c 123b acbc
00000220: c753 dabd 077f 7cbd 0567 333c e4dc ef3d
00000230: e053 debc bcb4 dabd 51dc 823c 0a7f 8ebc
00000240: d12c 853c 9cd5 ce3c da7f 85bd eb38 933d
00000250: d257 e5bd f78c 9a3c 069a f63c feb8 703c
00000260: c197 053c 1efe 343e bc2d 50bd 8cf5 cf3c
00000270: fe49 0bbd 6463 10bd ce60 c43d c9bd 5bbd
00000280: 043a cfbd a08e 06be 948f 2c3d 5244 39bd
00000290: fabf d03c 3a09 1c3b f3d3 ce3c 5d2b 22bc
000002a0: 31eb 7dbc e16e f9bc 0a63 b8bd 4394 49bd
000002b0: a9c3 733d a8be 23bb e81c 5ebe 4319 0e3e
000002c0: df72 35bb 399b b33b 875a 77bd 7a1c 18be
000002d0: b0ed d63d 5b3c 5f3d 1427 ebbc 9604 79bc
000002e0: e07f 0cbe 87a0 0d3e 1315 c0bd b0e4 cebb
000002f0: 2f0d 9ebd 6f82 2c3c da91 59bc a052 bb3c
00000300: 18f7 3f3d 7dd1 f3bd b685 5ebc 4ab3 e2bd
00000310: f5dd 30be fa94 ac3d c4bd e13d a1c7 dc3c
00000320: f2b0 0b3c 32ee f2bd 5e43 343b 1fd1 103e
00000330: 389c 5fbd aec0 033e 8177 2cbd f639 8c3d
00000340: df1c a83d 5afd a43c 6875 b93c cc20 3a3d
00000350: 5778 e7bc 1921 103d 1e33 d6bd ebac 81bd
00000360: 1cf3 013b 0eaf 1d3b 4101 73bd 050c 2abd
00000370: 9dc2 393d 5f2b 1abc a3c1 d83d 8527 56bd
00000380: 82da 96bd 3258 443b e45c 0abd 855d e8bd
00000390: 1c54 123c 00ab 76bc 7d57 cc3d fde7 8b3b
000003a0: 7c2e 753c 4878 f8bc 96da 363d 8ef1 44bd
000003b0: 03d1 10b9 b2f9 903d 4a31 f43c 6181 b53d
000003c0: 3d4d 4ebd fb0b eabd 9f6d 713d c0e9 22be
000003d0: 4c31 ffbc 606a 81bc d635 22bd b86a 143d
000003e0: b81f 933d c862 ff3d 0e9e f33c 3e1e 8c3c
000003f0: 2f19 f1bd a5f5 15be dccd 7fbd 6e04 88bc

pos_emb.weight f4 [50, 50]
0.15624474 -0.044103798 0.007115989 0.16808309 -0.022761421 0.061276235 -0.1775054 -0.08259219
-0.0067322194 -0.15406352 -0.10706023 -0.22698414 0.11291345 0.16576074 0.05353426 -0.081577525
0.2041562 0.34423816 0.32372043 -0.070225775 0.041515898 -0.23871182 0.19482775 -0.02009695
-0.043906502 -0.03070386 -0.0996613 -0.032389197 0.24887191 -0.043884255 -0.17528597 0.020850318
-0.4717396 0.09564088 -0.14437625 -0.02705264 -0.21648505 0.046425413 -0.11019867 0.071966305
-0.056435455 -0.058430128 -0.09811234 -0.1319867 0.1183429 -0.028918272 -0.28741956 -0.39582428
-0.091245025 0.032388553 -0.03300754 -0.02607434 -0.059495784 0.058404315 0.1029813 0.0087832315
0.051292967 -0.34763482 -0.055969674 -0.09695681 0.026735935 -0.08129538 0.09186942 -0.04980359
0.000698484 0.01704243 0.060463678 -0.03377185 0.027496941 0.29869682 -0.14098617 0.21120182
0.06640965 -0.17352709 0.37104997 -0.039893236 0.2520009 -0.091210194 -0.0976878 -0.16006202
0.12515 -0.05024296 0.0025102973 0.015461628 -0.30075806 0.06646623 -0.122060895 -0.0007071175
0.1347781 0.21524557 -0.14406195 0.061829 -0.2988177 0.0640157 0.24825083 0.033299375
0.29826766 -0.096060306 0.095311806 -0.098318055 0.02108789 0.048975594 -0.07078234 -0.09882861
-0.004798628 -0.12443339 -0.117108576 -0.27590868 0.024937436 -0.107347295 -0.07335622 -0.09899345
0.15360238 0.026743023 -0.045402728 -0.0478226 0.33039016 0.23531297 0.13698523 0.008124077
0.25729162 0.20445672 -0.070167445 0.26231325 -0.20954224 -0.21360742 -0.15547404 0.047602966
-0.051802035 -0.24262255 0.08880993 0.056439888 -0.13761728 -0.12568204 -0.26434797 0.16876055
-0.14602092 0.14218831 0.10951059 -0.022014668 0.07601745 -0.048661936 -0.027338294 0.19997276
0.07017504 0.042814016 -0.080230966 0.07290629 0.25162765 0.10061456 0.116365075 0.1653626
0.24623305 -0.03338398 -0.08467931 -0.15389924 0.058646522 -0.033601142 -0.22628926 -0.055080466
-0.16245654 -0.041614976 -0.01402151 0.05396915 0.045520537 0.05019224 0.12131783 -0.22238313
0.05413016 0.04787415 0.041592658 -0.09374221 -0.07092132 0.043019425 -0.076674186 -0.10201967
0.122161 -0.11539124 -0.06963744 -0.15628779 0.013887375 0.002031123 0.11552277 0.13116887
-0.15480314 -0.13151705 -0.044290192 0.1627631 -0.11180331 0.23018596 -0.05695611 -0.08428953
-0.019662786 -0.033377014 -0.04795664 0.03296395 0.024371937 -0.115842946 -0.07008214 -0.2353396
0.10602676 -0.25288227 0.1197135 -0.041055884 0.10669113 -0.094401166 -0.036402166 0.07056982
0.09243981 -0.08076358 -0.09036833 0.3917482 0.0459877 0.078156576 0.12258948 0.014477447
0.1122925 0.005074023 -0.17966071 -0.1505386 0.011738731 -0.12385744 0.046209097 0.086967885
0.06701867 0.0631228 0.18442279 -0.10962208 -0.22763366 -0.0036907694 -0.0062263836 0.14290093
-0.109281264 0.004040438 0.02114444 0.0035202806 0.11469003 -0.1565065 0.039716125 0.048076015
-0.05895102 0.021948082 0.21320267 -0.23849373 0.13677223 -0.1080985 -0.19859192 -0.17071405
-0.16731732 -0.049032982 0.020407595 -0.031003116 0.08259083 0.02453687 -0.059481975 0.22513315
00000000: 9ffe 1f3e 2fa6 34bd 3e2d e93b f91d 2c3e
00000010: 2976 babc cafc 7a3d fac3 35be 1826 a9bd
00000020: f399 dcbb d4c2 1dbe 6542 dbbd 886e 68be
00000030: 2b3f e73d 2fbd 293e bd46 5b3d 1e12 a7bd
00000040: 530e 513e fc3f b03e afbe a53e 88d2 8fbd
00000050: 930c 2a3d df70 74be ed80 473e 5ca2 a4bc
00000060: 4ed7 33bd a986 fbbc 391b ccbd 89aa 04bd
00000070: 47d8 7e3e fabf 33bd 2a7e 33be 49ce aa3c
00000080: da87 f1be 5edf c33d 5ed7 13be 809d ddbc
00000090: 42ae 5dbe 9328 3e3d d7af e1bd 1263 933d
000000a0: dd28 67bd 6e54 6fbd 1fef c8bd 8627 07be
000000b0: c35d f23d 03e6 ecbc a828 93be 7ba9 cabe
000000c0: acde babd dca9 043d ea32 07bd db99 d5bc
000000d0: dab1 73bd 5d39 6f3d dce7 d23d 8be7 0f3c
000000e0: 9318 523d 31fd b1be 7540 65bd 4b91 c6bd
000000f0: 5205 db3c 317e a6bd 0926 bc3d d9fe 4bbd
00000100: 781a 373a 919c 8b3c c3a8 773d 5a54 0abd
00000110: 4441 e13c caee 983e ae5e 10be 4a45 583e
00000120: c801 883d 16b1 31be 43fa bd3e 1767 23bd
00000130: 4306 813e 69cc babd 8b10 c8bd 4ce7 23be
00000140: 5227 003e 90cb 4dbd cd83 243b c552 7d3c
00000150: f6fc 99be 721f 883d 10fb f9bd da5d 39ba
00000160: 4503 0a3e 5669 5c3e fa84 13be 6840 7d3d
00000170: a2fe 98be aa1a 833d 7735 7e3e ed64 083d
00000180: 8ab6 983e 44bb c4bd d632 c33d fa5a c9bd
00000190: 83c0 ac3c a29a 483d 55f6 90bd a766 cabd
000001a0: cf3d 9dbb efd6 febd 9fd6 efbd e743 8dbe
000001b0: 9849 cc3c e6d8 dbbd c93b 96bd 14bd cabd
000001c0: f149 1d3e 2f14 db3c 36f8 39bd a1e1 43bd
000001d0: e628 a93e e2f5 703e db45 0c3e d91a 053c
000001e0: babb 833e 1a5d 513e f3b3 8fbd ec4d 863e
000001f0: 3e92 56be e7bb 5abe 9634 1fbe 54fb 423d
00000200: 5f2e 54bd 0c72 78be fbe1 b53d 832d 673d
00000210: 8beb 0cbe cbb2 00be 9e58 87be 91cf 2c3e
00000220: 8286 15be d099 113e 1747 e03d 1b58 b4bc
00000230: 09af 9b3d bd51 47bd 8ff4 dfbc a9c5 4c3e
00000240: eeb7 8f3d c05d 2f3d 2250 a4bd e54f 953d
00000250: 57d5 803e 020f ce3d d050 ee3d d054 293e
00000260: 8424 7c3e a4bd 08bd 596c adbd c397 1dbe
00000270: 5637 703d 5aa1 09bd 5fb8 67be 0e9c 61bd
00000280: 025b 26be 7774 2abd 7aba 65bc c10e 5d3d
00000290: be73 3a3d 6196 4d3d 7c75 f83d 67b8 63be
000002a0: 96b7 5d3d af17 443d 105d 2a3d eafb bfbd
000002b0: 323f 91bd 2335 303d 5b07 9dbd b0ef d0bd
000002c0: 8c2f fa3d 3e52 ecbd 139e 8ebd e809 20be
000002d0: df87 633c 971c 053b 3497 ec3d 2251 063e
000002e0: b784 1ebe 68ac 06be a269 35bd 5fab 263e
000002f0: 22f9 e4bd deb5 6b3e cf4a 69bd fd9f acbd
00000300: da13 a1bc 56b6 08bd 2f6e 44bd 3505 073d
00000310: a8a7 c73c 113f edbd 3a87 8fbd ddfc 70be
00000320: 8f24 d93d c979 81be 5a2c f53d 372a 28bd
00000330: e180 da3d 6655 c1bd 701a 15bd e986 903d
00000340: 1551 bd3d 6067 a5bd 0813 b9bd 3893 c83e
00000350: 995d 3c3d 8e10 a03d 3110 fb3d d032 6d3c
00000360: 9cf9 e53d fd43 a63b faf8 37be ca26 1abe
00000370: ce53 403c f8a8 fdbd c045 3d3d 381c b23d
00000380: 1641 893d 8746 813d 54d9 3c3e 8b81 e0bd
00000390: cc18 69be d6e0 71bb b106 ccbb 9f54 123e
000003a0: dbce dfbd a765 843b 1b37 ad3c 82b4 663b
000003b0: 9be2 ea3d 3d43 20be 60ad 223d 5beb 443d
000003c0: a076 71bd 77cc b33c cd51 5a3e b337 74be
000003d0: 050e 0c3e bf62 ddbd ae5b 4bbe aacf 2ebe
000003e0: 3b55 2bbe cfd6 48bd d42d a73c 3ffa fdbc
000003f0: 6225 a93d 8c01 c93c 5fa3 73bd 4e89 663e

attention_layernorms.0.weight f4 [50]
0.97495115 1.0143837 0.9571668 0.92080516 1.0694045 1.104522 0.822321 0.88592595
0.9444001 1.071714 0.8652521 0.97223526 1.0574667 0.94021887 1.0954415 0.9525874
0.95659536 0.9588174 0.9103242 1.0512528 0.92794406 0.92505944 0.95594054 0.9729122
1.0204996 1.0410389 1.0641832 0.9878123 1.0457269 0.90671295 1.0024339 0.9815948
0.9866862 0.980671 1.0038351 0.969316 0.96048176 1.0124575 0.9842706 0.846256
0.98572606 1.0562485 1.0312115 0.91405576 0.87998104 0.784099 0.9720624 0.93100584
0.9280944 0.9129651
00000000: 6696 793f 53d7 813f e208 753f e3b9 6b3f
00000010: 3fe2 883f fa60 8d3f a183 523f 0bcc 623f
00000020: 34c4 713f ed2d 893f 2981 5d3f 69e4 783f
00000030: 125b 873f 2fb2 703f 6d37 8c3f c5dc 733f
00000040: 6fe3 743f 0f75 753f 020b 693f 748f 863f
00000050: be8d 6d3f b2d0 6c3f 85b8 743f c610 793f
00000060: bb9f 823f c340 853f 2837 883f 44e1 7c3f
00000070: 61da 853f 571e 683f c14f 803f cc49 7b3f
00000080: 7897 7c3f 410d 7b3f ab7d 803f 1825 783f
00000090: 22e2 753f 3598 813f 28f9 7b3f 3ca4 583f
000000a0: 8b58 7c3f 2733 873f bdfe 833f 8fff 693f
000000b0: 7046 613f b6ba 483f 15d9 783f 6656 6e3f
000000c0: 9897 6d3f 15b8 693f

attention_layernorms.0.bias f4 [50]
0.09030919 -0.16761886 -0.04210755 -0.016480656 -0.007336443 0.024190336 -0.057497527 -0.1963271
-0.11502239 0.03893463 -0.19308013 0.0646571 0.08656212 -0.014165707 0.23605101 0.009580781
-0.13643593 0.23806213 -0.086063124 0.09539753 0.0826892 0.036351275 -0.0015165675 -0.025103241
-0.10314543 -0.04792202 0.052763157 -0.1442514 -0.022225616 -0.13393249 0.010880032 0.0014003325
0.016603488 0.010384885 0.014890481 0.024951402 -0.030118916 0.055716373 0.1578514 0.006376339
-0.13079673 -0.053554535 0.1691049 0.09494394 0.14576653 0.15802996 0.02462436 0.013240854
0.031995047 -0.10830298
00000000: 06f4 b83d 47a4 2bbe f778 2cbd 7102 87bc
00000010: 8b66 f0bb d02a c63c 8782 6bbd f909 49be
00000020: dc90 ebbd eb79 1f3d ccb6 45be f16a 843d
00000030: 7b47 b13d 4817 68bc 5bb7 713e b5f8 1c3c
00000040: dcb5 0bbe 8fc6 733e dd41 b0bd c85f c33d
00000050: f558 a93d 13e5 143d 90c7 c6ba 50a5 cdbc
00000060: e93d d3bd e149 44bd 2e1e 583d a4b6 13be
00000070: 7f12 b6bc 9925 09be 2942 323c 5d8b b73a
00000080: 0a04 883c 5d25 2a3c 34f7 733c e266 cc3c
00000090: f2bb f6bc da36 643d cca3 213e 9cf0 d03b
000000a0: 94ef 05be 005c 5bbd d629 2d3e f871 c23d
000000b0: d243 153e 9bd2 213e 07b9 c93c 2bf0 583c
000000c0: 3d0d 033d f4cd ddbd

attention_layernorms.1.weight f4 [50]
1.002923 0.972922 0.9791544 0.9667716 1.066055 1.0908391 0.8955152 0.94208205
0.88041806 1.070139 0.84712654 0.99196756 1.0850023 0.98409104 0.9889284 0.9234385
0.9338223 0.9201301 0.95165646 1.1152629 0.9502637 0.98308617 0.9378149 0.9229571
1.107034 1.0449952 1.052181 0.96905416 1.0453689 0.9740719 1.0640813 0.95980555
1.1192992 0.9604833 1.0418034 0.98843575 1.015935 0.92869854 1.013798 0.8748277
1.0060732 1.126954 1.0510719 0.894613 0.9133702 0.78260905 1.0243211 0.93118757
0.9618085 0.9837307
00000000: c85f 803f 6b11 793f dda9 7a3f 587e 773f
00000010: 7e74 883f 9ea0 8b3f 7c40 653f 4a2c 713f
00000020: 1463 613f 51fa 883f 49dd 583f 96f1 7d3f
00000030: 5be1 8a3f 64ed 7b3f 692a 7d3f 7766 6c3f
00000040: fa0e 6f3f a58d 6b3f c29f 733f efc0 8e3f
00000050: 7b44 733f 89ab 7b3f a314 703f eb46 6c3f
00000060: 4ab3 8d3f 67c2 853f dead 863f ef13 783f
00000070: a6ce 853f c75c 793f d133 883f d1b5 753f
00000080: 3245 8f3f 3ce2 753f d059 853f 200a 7d3f
00000090: 280a 823f 30bf 6d3f 22c4 813f b5f4 5f3f
000000a0: 02c7 803f 0740 903f 8689 863f 5c05 653f
000000b0: a1d2 693f 1159 483f f41c 833f 4f62 6e3f
000000c0: 1539 763f c6d5 7b3f

attention_layernorms.1.bias f4 [50]
0.061241884 -0.005362554 0.051524393 0.0690239 -0.06928296 -0.09834427 -0.04262247 -0.03941196
0.053070687 0.0070442427 0.043440986 0.031083433 0.010692107 0.12872273 -0.061078273 0.036507305
-0.01580584 -0.016626248 -0.09008335 -0.115340546 -0.04843982 0.023514885 0.021545159 0.072508395
0.13119233 -0.1142705 -0.030474199 0.023200994 0.05830737 -0.013805093 -0.019223051 0.027566878
-0.04095607 -0.042392705 -0.02283732 -0.08852454 0.07067048 -0.067940995 -0.07454364 0.08601891
0.064618185 0.04653031 -0.07603224 0.0054412554 0.006812929 -0.036885545 0.078539856 -0.04640058
0.087179706 -0.048906595
00000000: c5d8 7a3d 5db8 afbb 3e0b 533d 675c 8d3d
00000010: 39e4 8dbd b868 c9bd e694 2ebd 6f6e 21bd
00000020: a660 593d 64d3 e63b 2def 313d afa2 fe3c
00000030: f22d 2f3c e4cf 033e 362d 7abd af88 153d
00000040: 407b 81bc c533 88bc 9f7d b8bd aa37 ecbd
00000050: d568 46bd 4aa2 c03c 797f b03c 487f 943d
00000060: 4857 063e a706 eabd 07a5 f9bc 0310 be3c
00000070: b5d3 6e3d c22e 62bc a979 9dbc efd3 e13c
00000080: 8dc1 27bd f9a3 2dbd 5515 bbbc 5b4c b5bd
00000090: afbb 903d a624 8bbd 56aa 98bd af2a b03d
000000a0: 8a56 843d 9196 3e3d cbb6 9bbd 8f4c b23b
000000b0: fe3e df3b 4c15 17bd 81d9 a03d 890e 3ebd
000000c0: 468b b23d 4852 48bd

attention_layers.0.in_proj_weight f4 [150, 50]
0.1109638 -0.06935948 0.19009034 0.117533885 0.11680694 -0.20363665 -0.024740016 -0.061423883
0.15969968 -0.11592506 0.06007954 -0.184871 -0.24137892 -0.15160634 -0.02919568 -0.043819036
0.19792882 0.052128624 -0.0947811 0.10380923 0.3219906 -0.038736533 0.03499375 0.07413824
-0.06398105 -0.041443888 -0.023124853 -0.024889844 -0.2339331 -0.09147938 0.10008031 0.041974887
-0.1837544 0.11015025 0.0715446 0.0808464 -0.042076692 -0.09035811 -0.110783584 -0.037228018
-0.20429528 0.031638544 -0.05305208 -0.02065634 0.14415729 0.08679164 -0.02255943 0.031708665
0.0642895 0.03706988 0.14867182 0.14705853 0.06327459 -0.154637 0.203818 -0.035934094
-0.025708724 -0.05909817 -0.034963865 -0.040278163 -0.07163997 -0.11084855 -0.1344497 -0.1908184
0.121786445 0.02386815 0.13422123 0.030219123 -0.17143402 -0.06353777 0.041931625 -0.021357603
-0.05633917 0.017803038 0.03464145 0.18753472 -0.054008227 -0.2557025 -0.03538231 -0.054664608
-0.24149118 0.1271187 -0.14556275 -0.06491196 0.00806141 0.10194745 0.1201434 -0.059929226
-0.052705914 0.05706949 -0.090500936 0.025282638 -0.07102191 0.19975442 -0.022021756 0.044131447
0.10136314 -0.03971327 0.074779876 -0.07859578 -0.037600458 -0.17363855 0.034518413 -0.0216221
-0.16788933 0.06535093 -0.030053075 -0.1637643 -0.086716846 -0.09528838 -0.07381122 0.101811215
-0.01918528 -0.062840715 0.038105745 0.085098065 0.03938805 -0.013257703 -0.25081012 -0.12535773
0.17389022 0.04366308 0.037598748 0.16574544 0.059284005 -0.016504837 0.059733722 0.22851856
-0.20367444 0.012149492 0.09805778 -0.046032824 -0.0018602706 -0.12034592 -0.068170026 0.107655935
-0.14005113 -0.092283934 -0.069004856 -0.0019202261 0.23803358 0.13514458 0.09181836 0.0033667681
0.09721053 0.15748304 -0.11380633 -0.13085441 -0.04640047 -0.043176576 -0.03491453 0.11550493
0.066706285 0.05351667 -0.10358856 0.11111963 0.016993422 0.3099452 -0.10698932 -0.10924603
0.0235774 -0.072710134 -0.056030545 0.058862183 0.08634757 -0.20391521 0.023389934 -0.011756605
0.12813118 -0.011566295 -0.0900857 -0.0627893 0.022031777 0.17464586 -0.013644603 -0.070126586
0.12006261 -0.007664294 0.07191302 -0.041769583 -0.14306583 0.08536196 0.06410535 0.071793176
-0.013643027 0.07140271 0.030691005 -0.02709176 0.21503407 -0.06855313 0.0854046 0.00474077
-0.1154035 -0.053274576 0.12126435 -0.16182908 0.007994909 0.17658687 -0.17345868 -0.16908215
0.033678863 0.050803635 0.091929026 0.05223371 -0.014355623 -0.00029372715 -0.1500696 0.101257995
-0.034525514 0.12475794 0.087238185 0.13135453 0.003147293 0.14668994 0.20593141 -0.028117564
-0.01649902 -0.12169519 0.061945025 0.15350206 -0.20772932 -0.054359138 -0.20486903 -0.05254355
-0.026688853 0.0650182 0.024570186 0.022981826 0.06991181 -0.024552306 0.10631219 -0.0043737656
0.17002667 0.056640424 0.12732245 -0.063268006 -0.027945884 0.1473358 -0.20346628 -0.23625425
-0.10682125 0.07372923 0.15098165 -0.059841957 -0.077669665 0.12398898 -0.07889557 -0.06565169
-0.15784886 -0.12038154 0.1235801 -0.21143356 -0.022818374 0.019016694 -0.069666915 6.0280203e-05
00000000: fd40 e33d 580c 8ebd 0ba7 423e 9bb5 f03d
00000010: 7a38 ef3d 2086 50be 93ab cabc 9c97 7bbd
00000020: 5088 233e 1e6a edbd f715 763d d34e 3dbe
00000030: 092c 77be b13e 1bbe c72b efbc 977b 33bd
00000040: daad 4a3e d384 553d 981c c2bd ef99 d43d
00000050: f4db a43e 33aa 1ebd 9b55 0f3d cad5 973d
00000060: 7f08 83bd 11c1 29bd 5570 bdbc c9e5 cbbc
00000070: 298c 6fbe 8b59 bbbd e8f6 cc3d dced 2b3d
00000080: 1d2a 3cbe 7496 e13d fa85 923d cc92 a53d
00000090: 9c58 2cbd ac0d b9bd 81e2 e2bd 687c 18bd
000000a0: c832 51be 6b97 013d 234d 59bd 7c37 a9bc
000000b0: f89d 133e d1bf b13d 8ece b8bc f2e0 013d
000000c0: 37aa 833d 96d6 173d 6d3d 183e 8396 163e
000000d0: 1c96 813d 2959 1ebe aab5 503e a12f 13bd
000000e0: 1a9b d2bc ec10 72bd 4536 0fbd b7fa 24bd
000000f0: fab7 92bd 9104 e3bd 2fad 09be e665 43be
00000100: 2c6b f93d 2387 c33c 4a71 093e 188e f73c
00000110: 668c 2fbe 1720 82bd 7fc0 2b3d 24f6 aebc
00000120: e7c3 66bd add7 913c 31e4 0d3d 1a09 403e
00000130: bb37 5dbd 70eb 82be 0bed 10bd ffe7 5fbd
00000140: 7749 77be 682b 023e 670e 15be 90f0 84bd
00000150: 0114 043c d3c9 d03d be0d f63d 5978 75bd
00000160: 28e2 57bd b3c1 693d 8e58 b9bd 891d cf3c
00000170: ef73 91bd 6c8c 4c3e f866 b4bc 2dc3 343d
00000180: 7a97 cf3d 62aa 22bd 3126 993d d3f6 a0bd
00000190: f002 1abd 4ece 31be 2e63 0d3d d520 b1bc
000001a0: 2eeb 2bbe b5d6 853d de31 f6bc d4b1 27be
000001b0: 9a98 b1bd 8e26 c3bd 562a 97bd 6682 d03d
000001c0: 732a 9dbc a2b2 80bd c514 1c3d e547 ae3d
000001d0: 5d55 213d d636 59bc 2f6a 80be c75d 00be
000001e0: 4710 323e 0fd8 323d 2501 1a3d 2cb9 293e
000001f0: c9d3 723d 2735 87bc 59ab 743d c500 6a3e
00000200: 0890 50be aa0e 473c 84d2 c83d ea8c 3cbd
00000210: 53d4 f3ba ec77 f6bd ba9c 8bbd b77a dc3d
00000220: 9069 0fbe 5cff bcbd 6b52 8dbd 19b0 fbba
00000230: 13bf 733e 5763 0a3e 440b bc3d ffa4 5c3b
00000240: 5016 c73d 3c43 213e 4b13 e9bd b3fe 05be
00000250: 6b0e 3ebd ecd9 30bd 8a02 0fbd d98d ec3d
00000260: 4e9d 883d 4c34 5b3d 3d26 d4bd b092 e33d
00000270: ca35 8b3c 23b1 9e3e 371d dbbd 62bc dfbd
00000280: 6425 c13c 0de9 94bd 4980 65bd 7919 713d
00000290: ffd6 b03d 26cf 50be 3f9c bf3c c69e 40bc
000002a0: d234 033e 8f80 3dbc da7e b8bd ad97 80bd
000002b0: fc7b b43c 5dd6 323e 9d8d 5fbc 879e 8fbd
000002c0: 63e3 f53d c224 fbbb 2247 933d 9516 2bbd
000002d0: d97f 12be 40d2 ae3d aa49 833d 4d08 933d
000002e0: 0187 5fbc 963b 923d b46b fb3c 8aef ddbc
000002f0: e431 5c3e 9565 8cbd 9be8 ae3d 7658 9b3b
00000300: ac58 ecbd 7136 5abd 7259 f83d 86b6 25be
00000310: 14fd 023c 30d3 343e 279f 31be df23 2dbe
00000320: d9f2 093d 7917 503d 4945 bc3d 04f3 553d
00000330: d933 6bbc 64ff 99b9 d8ab 19be 5a60 cf3d
00000340: a06a 0dbd 1781 ff3d efa9 b23d cd81 063e
00000350: d142 4e3b e335 163e afdf 523e ce56 e6bc
00000360: f428 87bc 543b f9bd 11ba 7d3d a52f 1d3e
00000370: ffb6 54be b0a7 5ebd 30c9 51be e837 57bd
00000380: 95a2 dabc 4328 853d 6a47 c93c 6244 bc3c
00000390: ec2d 8f3d eb21 c9bc 35ba d93d ce51 8fbb
000003a0: 791b 2e3e caff 673d d160 023e a892 81bd
000003b0: c4ee e4bc 32df 163e 7759 50be a2ec 71be
000003c0: 19c5 dabd 5aff 963d ef9a 1a3e d71c 75bd
000003d0: 4611 9fbd efed fd3d 0094 a1bd 6574 86bd
000003e0: 22a3 21be 998a f6bd 9017 fd3d 0a82 58be
000003f0: 99ed babc e6c8 9b3c 87ad 8ebd 60d5 7c38

attention_layers.0.in_proj_bias f4 [150]
0.067891 0.18300645 0.1656587 -0.18593168 -0.023277123 -0.15252632 0.16113728 -0.034233466
0.15525745 -0.14978883 0.100635126 -0.12726332 -0.014153824 -0.13477117 -0.06809234 0.13588531
0.008582498 0.14944947 0.11842618 0.2135458 -0.00017316469 0.14579384 0.1743717 0.1586849
-0.16836457 -0.16947618 -0.15616167 0.0072550694 -0.08890929 0.117969446 -0.05651357 -0.18217956
0.19025332 0.19291055 -0.13248834 0.18409252 -0.24358134 -0.19720997 -0.1845367 0.20648238
0.06825642 -0.06365478 0.10248195 0.107546195 0.13854127 0.08353622 -0.030324426 -0.22056663
0.14991097 0.113804534 9.78958e-05 -8.8253e-06 8.7180684e-05 -1.3408976e-06 -3.6082984e-05 2.7580027e-05
-5.768307e-05 8.357974e-06 -3.2469055e-05 -1.4519835e-05 5.337955e-05 1.8640398e-05 3.7502938e-05 -2.018852e-05
7.132725e-05 4.538017e-05 -6.728899e-05 8.631436e-06 -4.7914025e-05 3.292012e-05 -2.5150264e-05 -4.374864e-06
-2.294846e-05 1.8019282e-05 3.9636358e-05 -2.2859302e-05 2.5774705e-05 -2.924373e-05 2.115812e-05 -1.5837291e-05
1.05215e-05 -3.4254022e-05 -2.5473943e-05 -1.579868e-05 -6.170515e-08 9.644244e-05 9.382237e-06 -5.286272e-06
2.607518e-05 -9.462629e-05 -2.0928412e-05 -6.0433358e-05 5.4466414e-06 3.0341687e-05 4.0329e-05 -4.350503e-06
-4.985463e-05 -5.5639666e-05 9.683735e-06 -8.129394e-05 -0.18250512 0.0061900346 0.10273748 -0.07651828
-0.096816786 -0.12867421 0.050423034 -0.078971185 0.03799606 0.026988018 0.11386272 -0.11325686
0.097624525 0.057380173 -0.1491142 0.065386795 0.0724313 -0.11665379 0.14259058 -0.024148393
-0.003731756 -0.08036974 0.05522105 -0.08847176 0.07842971 -0.16701533 -0.14950728 -0.020101976
-0.0019159163 -0.0034019018 0.08986876 0.044410627 -0.059304286 0.101246096 0.029676855 0.010880223
-0.13411647 -0.15155938 -0.22761598 -0.06741976 -0.12919389 -0.09512305 -0.059735253 0.024238825
0.15986882 0.062455565 -0.109937064 -0.023292823 0.08312017 0.054193817
00000000: 700a 8b3d 0b66 3b3e 6fa2 293e e064 3ebe
00000010: aaaf bebc dc2f 1cbe 2c01 253e 6438 0cbd
00000020: cffb 1e3e 3e62 19be ca19 ce3d 5151 02be
00000030: 71e5 67bc 7401 0abe ff73 8bbd 8525 0b3e
00000040: 9b9d 0c3c 4809 193e 6d89 f23d c0ab 5a3e
00000050: 8b93 35b9 fb4a 153e 7f8e 323e 4b7e 223e
00000060: c367 2cbe 2a8b 2dbe d8e8 1fbe efbb ed3b
00000070: 1316 b6bd f799 f13d c67a 67bd 478d 3abe
00000080: c4d1 423e 588a 453e 06ab 07be c082 3c3e
00000090: 636d 79be 69f1 49be 30f7 3cbe 1e70 533e
000000a0: 06ca 8b3d 705d 82bd 0ee2 d13d 2e41 dc3d
000000b0: c3dd 0d3e 0a15 ab3d ee6a f8bc 38dc 61be
000000c0: 4382 193e 5a12 e93d 684d cd38 6010 14b7
000000d0: c6d4 b638 e4f8 b3b5 cf57 17b8 a85b e737
000000e0: baf0 71b8 3a39 0c37 622f 08b8 379a 73b7
000000f0: dbe3 5f38 f35d 9c37 794c 1d38 845a a9b7
00000100: 8795 9538 9656 3e38 801d 8db8 bccf 1037
00000110: 4bf7 48b8 b613 0a38 c8f9 d2b7 cccb 92b6
00000120: 7181 c0b7 1d28 9737 373f 2638 fac1 bfb7
00000130: c236 d837 6f50 f5b7 b77c b137 53da 84b7
00000140: 8085 3037 faab 0fb8 e0b0 d5b7 6887 84b7
00000150: c482 84b3 2441 ca38 6768 1d37 bb60 b1b6
00000160: 06bc da37 1a72 c6b8 6c8f afb7 d379 7db8
00000170: 4bc2 b636 4786 fe37 ef26 2938 89fa 91b6
00000180: 001b 51b8 a35e 69b8 5377 2237 5a7c aab8
00000190: 9fe2 3abe c6d5 ca3b 0768 d23d 9eb5 9cbd
000001a0: e147 c6bd 2cc3 03be 6288 4e3d a5bb a1bd
000001b0: c2a1 1b3d fa15 dd3c dc30 e93d 36f3 e7bd
000001c0: 5eef c73d 7907 6b3d 65b1 18be 83e9 853d
000001d0: dd56 943d 2fe8 eebd 4403 123e dad2 c5bc
000001e0: 7a90 74bb e498 a4bd 782f 623d af30 b5bd
000001f0: c19f a03d 1106 2bbe 7018 19be e6ac a4bc
00000200: 7c1f fbba 71f2 5ebb 1d0d b83d ebe7 353d
00000210: 0de9 72bd 1d5a cf3d e01c f33c f642 323c
00000220: d455 09be 6232 1bbe 2a14 69be 5f13 8abd
00000230: 674b 04be e0cf c2bd f4ac 74bd 8090 c63c
00000240: a7b4 233e 68d1 7f3d af26 e1bd 97d0 bebc
00000250: e83a aa3d 56fa 5d3d

attention_layers.0.out_proj.weight f4 [50, 50]
-0.10350164 -0.04419085 -0.0034785252 -0.101989284 0.07047742 -0.057720266 0.19502456 0.0319148
0.28980798 0.06832845 -0.13864079 0.15446113 -0.28440735 0.24386577 0.0071340916 -0.041323695
-0.0067555956 0.02772081 0.11254169 0.029762914 0.28224772 0.03652964 0.11091197 0.03358101
-0.021500252 -0.057476748 -0.059527718 -0.23894882 -0.18630747 0.012117922 -0.24226318 0.051337443
-0.11702567 0.14589609 -0.32582453 -0.3680841 -0.19052806 -0.0520559 -0.129257 0.25398844
-0.03490282 -0.00044912362 -0.1166426 -0.03150583 0.06014542 -0.084066994 -0.07371515 0.018110126
-0.1411531 0.19159307 0.05374604 -0.35946566 -0.0055019474 -0.040661246 -0.092531696 0.15593955
-0.054507796 0.26995754 -0.24597083 0.18385021 -0.050870918 0.25196716 -0.07096767 0.15779985
0.10080713 -0.087544866 -0.27649567 0.18476555 -0.0630651 -0.29858866 -0.067939766 -0.109100066
-0.007193245 -0.09119869 -0.07798025 0.22403857 0.21473438 0.09894807 0.11198709 0.0487623
0.0054742508 -0.15413867 0.17828444 -0.028404312 -0.13634135 -0.11584785 0.09323757 0.21145894
0.23349175 0.017842082 0.08751227 -0.04070687 0.1493909 0.0067025474 -0.35363525 -0.2295098
0.18229306 0.12709692 0.031511564 -0.1219595 0.1011772 -0.010185239 -0.08483699 0.072583295
0.0020424703 0.05172726 -0.1541384 -0.011472902 -0.17038 -0.058775242 0.03502871 -0.097784676
0.15860377 -0.082595065 -0.030367263 -0.036830552 0.08006627 0.38804346 0.2318295 -0.20240828
-0.17917638 -0.35795975 -0.017480167 -0.27906504 0.09200115 0.22344996 0.024056338 -0.061360404
0.21884365 -0.36016685 0.031285763 -0.0020702197 -0.29372588 0.3896094 -0.10785266 0.18173516
0.07654111 -0.10657788 0.118079826 -0.18562724 0.11546164 0.03925484 0.05361577 -0.11858921
0.05152414 -0.059580214 0.15646844 0.11676678 0.23818088 0.04681576 0.1836087 0.38834155
-0.13010019 0.24820364 -0.088464 -0.08431428 -0.10065466 0.025841711 0.32672969 -0.0019003875
-0.010925088 -0.01838922 0.03074482 0.09599007 0.045699466 -0.035953984 0.03450133 0.46361473
-0.13089523 0.116442084 0.06099838 -0.19025216 -0.014758669 -0.029174363 -0.0918325 0.10330419
-0.009428153 0.017094571 0.11559367 -0.057983454 0.2571296 0.016823618 -0.13659362 0.054853518
-0.18212524 -0.009051882 0.18697003 0.25864756 0.1367084 -0.11405137 0.11570891 0.09125633
-0.099383585 0.19330786 -0.043819338 0.19903359 0.01792174 -0.06656446 0.11301245 0.13463345
-0.022343172 0.32079265 0.21039939 -0.18022017 0.11167357 -0.20799847 0.09628973 -0.06897114
0.0152229145 0.048314027 -0.37530446 0.1106082 0.11210238 -0.19995368 0.08483477 -0.005116866
0.103367016 0.005054701 -0.0037139775 -0.09185434 -0.17689988 -0.006743981 -0.22602248 0.06995996
0.117977485 0.26348868 -0.35852456 -0.04788328 -0.20404576 -0.15841681 -0.025632443 -0.030837491
0.10211082 -0.036209907 0.009914913 0.11953136 -0.29588547 0.040373545 -0.059814293 0.081427865
-0.1010164 0.009096098 -0.0062713316 -0.14042702 -0.20279954 -0.039892472 -0.07105597 0.07035001
-0.2551005 -0.07574316 -0.16365422 0.28165698 -0.14031082 -0.45280468 -0.2700486 -0.08120137
00000000: abf8 d3bd 7701 35bd f8f7 63bb c2df d0bd
00000010: 7756 903d 166c 6cbd 85b4 473e 18b9 023d
00000020: b661 943e c9ef 8b3d daf7 0dbe 0f2b 1e3e
00000030: d79d 91be f3b7 793e 19c5 e93b 0943 29bd
00000040: 0b5e ddbb c116 e33c 427c e63d 5bd1 f33c
00000050: c682 903e 1ba0 153d d125 e33d 3e8c 093d
00000060: 4c21 b0bc bd6c 6bbd 56d3 73bd 00af 74be
00000070: 63c7 3ebe 408a 463c d713 78be 3647 523d
00000080: 28ab efbd c965 153e 79d2 a6be 8575 bcbe
00000090: ca19 43be 9138 55bd f25b 04be c60a 823e
000000a0: 42f6 0ebd 5a78 ebb9 51e2 eebd 420c 01bd
000000b0: 0b5b 763d 512b acbd f8f7 96bd b05b 943c
000000c0: 708a 10be f930 443e cf24 5c3d e20b b8be
000000d0: ae49 b4bb 688c 26bd 4281 bdbd 9eae 1f3e
000000e0: 9143 5fbd e037 8a3e c7df 7bbe 3b43 3c3e
000000f0: 065e 50bd d701 813e 7f57 91bd 4996 213e
00000100: f873 ce3d b94a b3bd d790 8dbe 2e33 3d3e
00000110: 4628 81bd 9de0 98be 0124 8bbd db6f dfbd
00000120: 50b5 ebbb 61c6 babd 1cb4 9fbd 5e6a 653e
00000130: 54e3 5b3e 49a5 ca3d 7d59 e53d faba 473d
00000140: 5861 b33b 87d6 1dbe 3290 363e 29b0 e8bc
00000150: 119d 0bbe a341 edbd 57f3 be3d b188 583e
00000160: 7618 6f3e 8f29 923c a239 b33d 3fbc 26bd
00000170: eef9 183e 0ba1 db3b ae0f b5be 9e04 6bbe
00000180: 08ab 3a3e b225 023e 4512 013d e7c5 f9bd
00000190: fe35 cf3d fddf 26bc 04bf adbd 8da6 943d
000001a0: f7da 053b f7df 533d 75d6 1dbe d7f8 3bbc
000001b0: 1878 2ebe 4fbe 70bd 447a 0f3d 5543 c8bd
000001c0: 0769 223e 9a27 a9bd c4c4 f8bc a2db 16bd
000001d0: c9f9 a33d a2ad c63e b664 6d3e 1e44 4fbe
000001e0: 037a 37be 8046 b7be 9132 8fbc 9de1 8ebe
000001f0: 196b bc3d 11d0 643e cc11 c53c 0c55 7bbd
00000200: 8d18 603e ca67 b8be 8025 003d 86ac 07bb
00000210: 3d63 96be e27a c73e dbe1 dcbd c818 3a3e
00000220: 96c1 9c3d 8145 dabd d6d3 f13d 1115 3ebe
00000230: 2777 ec3d afc9 203d 369c 5b3d e6de f2bd
00000240: fa0a 533d 620a 74bd 4339 203e 6c23 ef3d
00000250: b0e5 733e e2c1 3f3d eb03 3c3e b4d4 c63e
00000260: fc38 05be 1829 7e3e 9d2c b5bd f7ac acbd
00000270: 0824 cebd ffb1 d33c 1d49 a73e 6c16 f9ba
00000280: 24ff 32bc fda4 96bc 90dc fb3c 7196 c43d
00000290: 5d2f 3b3d 7c44 13bd 4451 0d3d e95e ed3e
000002a0: 6609 06be 3079 ee3d 70d9 793d 76d1 42be
000002b0: 58ce 71bc 13ff eebc ae12 bcbd 2691 d33d
000002c0: 8a78 1abc ea09 8c3c 60bc ec3d 0f80 6dbd
000002d0: 7ea6 833e afd1 893c 33df 0bbe 15ae 603d
000002e0: 0a7f 3abe 584e 14bc 1275 3f3e 746d 843e
000002f0: 49fd 0b3e c493 e9bd cbf8 ec3d 99e4 ba3d
00000300: 9f89 cbbd 7ff2 453e e87b 33bd 76cf 4b3e
00000310: 9dd0 923c f352 88bd 1273 e73d 5add 093e
00000320: 0709 b7bc ef3e a43e f072 573e a38b 38be
00000330: 1db5 e43d 8dfd 54be 8d33 c53d be40 8dbd
00000340: 8869 793c eee4 453d e827 c0be 8d86 e23d
00000350: ef95 e53d a8c0 4cbe dabd ad3d 62ab a7bb
00000360: 16b2 d33d e8a1 a53b 3466 73bb 211e bcbd
00000370: 3e25 35be 9dfc dcbb 7072 67be 2b47 8f3d
00000380: 2e9e f13d fde7 863e 8890 b7be 4221 44bd
00000390: 5ff1 50be 0438 22be 21fb d1bc e89e fcbc
000003a0: 7a1f d13d d750 14bd 2972 223c dccc f43d
000003b0: 4d7e 97be bb5e 253d d5ff 74bd a7c3 a63d
000003c0: b0e1 cebd cd07 153c be7f cdbb 1acc 0fbe
000003d0: afaa 4fbe 4a66 23bd cb85 91bd ab13 903d
000003e0: 889c 82be 3b1f 9bbd f994 27be 5835 903e
000003f0: a4ad 0fbe 04d6 e7be cf43 8abe e74c a6bd

attention_layers.0.out_proj.bias f4 [50]
0.09455933 -0.15623881 -0.025681006 -0.019421257 -0.028519083 -0.013760905 -0.065715075 -0.1834178
-0.10821999 0.032008905 -0.18490322 0.10517942 0.07523798 -0.05454106 0.1953332 0.04375978
-0.148905 0.23327368 -0.02817217 0.08405629 0.075111814 0.054610413 -0.009915117 -0.009846293
-0.05334285 -0.06218064 0.034780223 -0.14376578 -0.008822314 -0.123909205 -0.061621185 0.01617353
0.017291218 -0.020771403 -0.024360405 -0.024156578 -0.008293132 0.032496937 0.1700488 -0.018267276
-0.10686352 -0.013913396 0.15580201 0.0942078 0.1417374 0.09832613 0.09088404 -0.008828066
0.020622216 -0.19018519
00000000: 52a8 c13d 11fd 1fbe f960 d2bc 5419 9fbc
00000010: daa0 e9bc 6b75 61bc a095 86bd e0d1 3bbe
00000020: 71a2 ddbd c51b 033d 4557 3dbe 4f68 d73d
00000030: 5f16 9a3d 7266 5fbd 6d05 483e 743d 333d
00000040: 8d7a 18be 4cdf 6e3e 53c9 e6bc b425 ac3d
00000050: 39d4 993d 2baf 5f3d 0473 22bc 5952 21bc
00000060: 087e 5abd 20b1 7ebd b575 0e3d 5637 13be
00000070: 788b 10bc 1cc4 fdbd 7f66 7cbd 5a7e 843c
00000080: 50a6 8d3c ca28 aabc 798f c7bc 04e4 c5bc
00000090: ebdf 07bc 821b 053d 4621 2e3e 41a5 95bc
000000a0: 43db dabd 03f5 63bc 908a 1f3e 05f0 c03d
000000b0: 9c23 113e 365f c93d 6921 ba3d 98a3 10bc
000000c0: ecef a83c e8bf 42be

attention_layers.1.in_proj_weight f4 [150, 50]
0.018676369 0.023946205 0.011265815 0.09899125 -0.030415298 -0.096968226 0.014053856 -0.008264194
-0.04594654 -0.04851352 0.045079153 0.20732744 0.0043401225 0.093848296 0.037623372 0.10617509
-0.16554262 0.059362505 -0.04605365 -0.00041892566 0.12237726 0.2142302 -0.12921555 -0.11567967
0.016606033 -0.029101271 0.0064055948 0.0601969 -0.009775397 0.054783642 -0.06524311 -0.10130914
0.04861006 -0.10846769 0.0027445666 0.042468123 0.07610134 0.046880186 -0.04764796 -0.042179782
-0.144499 0.04475613 0.014319243 0.014583497 0.06652379 -0.19998549 -0.05059388 -0.17883724
0.013968161 -0.083757445 -0.08904757 0.0669014 -0.029036652 -0.26026163 0.14637707 -0.031857938
-0.023176907 -0.0715481 -0.14432268 0.08273156 -0.027772645 0.015030843 0.038311467 0.027015215
0.031115368 0.032894727 0.032555483 0.03185972 0.097968765 -0.022212481 -0.15801454 0.057925973
0.122608274 0.16141777 0.1755461 0.037387464 0.12933807 -0.09720348 -0.09187681 0.15445958
0.113298245 0.078358114 -0.036209106 -0.13243482 -0.18584277 0.09182546 0.0045933872 0.0350894
-0.06221931 -0.055814516 0.027208423 -0.10069901 -0.12121711 0.11512368 0.051951524 0.09307304
-0.049338933 0.08819968 -0.029163694 -0.106659055 0.10194888 -0.015462169 -0.001204368 0.003364597
-0.07085835 -0.08622018 5.7771977e-05 0.123184316 0.07214703 0.047801014 -0.069372326 0.12496756
0.041864228 -0.039900035 -0.077401504 -0.066338286 0.1650543 0.012643872 0.022589749 0.031183677
0.0001190491 0.045354314 -0.05279033 -0.11200484 -0.05605241 -0.06342098 -0.11313866 -0.051717877
-0.021726534 0.16396104 -0.030510144 0.15788771 0.08448397 -0.045153674 -0.19345641 0.052303113
-0.0426699 0.124278896 -0.07208483 -0.12865345 0.13010296 -0.0404908 0.030484566 -0.117511235
-0.10307795 -0.13587496 -0.12162782 -0.06679898 0.14030793 0.007489613 -0.03347416 0.10133451
0.026016688 0.0774655 -0.029822933 -0.049500816 -0.029139468 0.19427544 -0.077097096 0.16936783
0.078686714 0.00023142347 0.08447812 0.07618926 -0.0023686658 -0.09127282 -0.023811027 -0.083533846
0.028372275 0.14366083 0.054962147 -0.08120265 -0.23468976 0.11592486 0.056466844 -0.023627272
0.0006316513 -0.19988099 0.07525318 -0.08529422 -0.15716146 -0.042093523 0.102506675 -0.04542159
-0.050279357 0.039590433 0.0828163 -0.004308984 0.07226643 -0.12318712 -0.06082112 -0.16552971
-0.017381366 -0.04585441 0.025752708 -0.06333044 0.13023072 0.013350385 0.02367719 -0.03896084
0.04094665 0.051169965 -0.11514646 0.13526835 0.10757041 -0.024902629 -0.17176996 0.121662624
-0.018213077 -0.08989133 -0.044708494 0.05849877 0.20607322 0.02084556 0.1004609 0.026061764
-0.102458075 -0.09939456 -0.099506915 0.07750863 0.05639684 0.002134177 -0.032179166 -0.0039592623
-0.036652118 0.17091249 -0.015244997 -0.12814628 0.03222806 0.18098511 -0.104401164 0.07969845
0.063260674 0.025878355 0.10239577 0.06907662 -0.013901204 0.046188015 -0.15157036 0.14204827
-0.1391773 -0.091403365 -0.09243479 0.0066379635 -0.121481396 0.001970599 0.08120903 -0.014832131
0.0563912 -0.11136606 0.080992 0.03029609 0.047748484 -0.1044315 0.0069890036 -0.02548472
00000000: 2fff 983c d52a c43c 4194 383c edbb ca3d
00000010: 8129 f9bc 4797 c6bd 2542 663c 8b66 07bc
00000020: 7032 3cbd 1db6 46bd eba4 383d a54d 543e
00000030: 9637 8e3b 8933 c03d f71a 1a3d 5372 d93d
00000040: 0184 29be 1926 733d c1a2 3cbd 40a3 dbb9
00000050: eea0 fa3d 295f 5b3e 1551 04be 76e9 ecbd
00000060: 6009 883c ca65 eebc 06e6 d13b 0691 763d
00000070: fd28 20bc d064 603d 2e9e 85bd 2b7b cfbd
00000080: 581b 473d 4f24 debd 30de 333b 0ef3 2d3d
00000090: 05db 9b3d 7005 403d 822a 43bd b5c4 2cbd
000000a0: 8cf7 13be 3452 373d 429b 6a3c 9fef 6e3c
000000b0: a03d 883d ffc8 4cbe 873b 4fbd 1c21 37be
000000c0: b7da 643c 0689 abbd 935e b6bd 9a03 893d
000000d0: 46de edbc 0341 85be dfe3 153e 787d 02bd
000000e0: 7fdd bdbc cf87 92bd 53c9 13be 2a6f a93d
000000f0: 7583 e3bc ed43 763c 7cec 1c3d 034f dd3c
00000100: a8e5 fe3c 9fbc 063d e658 053d 567f 023d
00000110: d9a3 c83d f3f6 b5bc 90ce 21be c943 6d3d
00000120: 0c1a fb3d b34a 253e 5bc2 333e 9923 193d
00000130: 3371 043e 9e12 c7bd e929 bcbd a72a 1e3e
00000140: e908 e83d 387a a03d 0050 14bd fe9c 07be
00000150: 914d 3ebe fd0e bc3d 2084 963b e7b9 0f3d
00000160: add9 7ebd c39d 64bd 33e4 de3c 483b cebd
00000170: ad40 f8bd f7c5 eb3d 1fcb 543d 149d be3d
00000180: 9f17 4abd 09a2 b43d b3e8 eebc 1070 dabd
00000190: 93ca d03d 0a55 7dbc e2db 9dba 9280 5c3b
000001a0: 2f1e 91bd 3594 b0bd 3050 7238 0f48 fc3d
000001b0: d2c1 933d ffca 433d 1413 8ebd feee ff3d
000001c0: d379 2b3d 386e 23bd ae84 9ebd 5edc 87bd
000001d0: ff03 293e 3e28 4f3c 230e b93c e974 ff3c
000001e0: 00aa f938 72c5 393d ac3a 58bd cb62 e5bd
000001f0: 3697 65bd dce2 81bd 3eb5 e7bd 20d6 53bd
00000200: d8fb b1bc 67e5 273e 69f0 f9bc 51ad 213e
00000210: ef05 ad3d 0ff3 38bd 7019 46be ca3b 563d
00000220: a2c6 2ebd ef85 fe3d 36a1 93bd bbbd 03be
00000230: b639 053e aed9 25bd c5ba f93c bba9 f0bd
00000240: 881a d3bd ce22 0bbe 0218 f9bd e7cd 88bd
00000250: e2ac 0f3e 6d6b f53b 331c 09bd 7888 cf3d
00000260: f320 d53c 3ba6 9e3d 394f f4bc 5ec1 4abd
00000270: e5b5 eebc 24f0 463e 15e5 9dbd c36e 2d3e
00000280: 8026 a13d 44aa 7239 dd02 ad3d 1d09 9c3d
00000290: 9e3b 1bbb 3fed babd 580f c3bc cb13 abbd
000002a0: f96c e83c d31b 133e fd1f 613d 934d a6bd
000002b0: 8352 70be 036a ed3d c749 673d fb8d c1bc
000002c0: 6795 253a 9aad 4cbe 571e 9a3d bcae aebd
000002d0: efee 20be 426a 2cbd 05ef d13d fd0b 3abd
000002e0: baf1 4dbd 9429 223d 989b a93d 6132 8dbb
000002f0: 6c00 943d 8749 fcbd 911f 79bd 9f80 29be
00000300: 5e63 8ebc d5d1 3bbd 58f7 d23c 64b3 81bd
00000310: 345b 053e 93bb 5a3c abf6 c13c 6795 1fbd
00000320: adb7 273d 9997 513d e8d1 ebbd c983 0a3e
00000330: e04d dc3d 9900 ccbc 77e4 2fbe 412a f93d
00000340: 9733 95bc f218 b8bd 4120 37bd 689c 6f3d
00000350: dc04 533e 4fc4 aa3c 72be cd3d 7b7f d53c
00000360: 8ad5 d1bd 608f cbbd 48ca cbbd d8bc 9e3d
00000370: 5f00 673d 8cdd 0b3b 4dce 03bd b3bc 81bb
00000380: 8820 16bd af03 2f3e 27c6 79bc c738 03be
00000390: 9201 043d 2954 393e 47d0 d5bd f138 a33d
000003a0: d08e 813d d8fe d33c e0b4 d13d 0b78 8d3d
000003b0: e0c1 63bc a52f 3d3d 4335 1bbe 1a75 113e
000003c0: 7e84 0ebe b031 bbbd 744e bdbd 4683 d93b
000003d0: 3dcb f8bd 2a25 013b eb50 a63d 7702 73bc
000003e0: 75fa 663d e413 e4bd 22df a53d 812f f83c
000003f0: ea93 433d 2fe0 d5bd 0304 e53b 55c5 d0bc

attention_layers.1.in_proj_bias f4 [150]
0.034453236 0.043234754 -0.01909325 -0.029930117 0.021118037 -0.046607714 -0.014315129 -0.026765373
0.035752647 -0.015423936 0.06691634 -0.0132674 -0.0042679817 -0.05236367 0.018799825 -0.012001637
-0.011350143 -0.024917189 0.036877446 0.012224832 -0.042175602 0.03346102 0.009799596 -0.018234469
-0.035123352 -0.057349317 0.06280698 0.021657756 -0.017339682 -0.006444621 0.06799336 -0.053256016
-0.010857031 -0.009834719 0.015915107 0.061399784 0.034587365 -0.0037026973 0.06207175 -0.0063425526
0.005943348 0.006613762 -0.061490502 -0.031020723 -0.031343136 0.050436866 -0.013413468 0.069671795
0.017600516 -0.0427974 3.13292e-05 -4.2186275e-05 -3.4292872e-05 -3.6627724e-05 -5.533523e-06 -2.8471854e-05
7.804845e-05 -1.9495297e-05 6.176659e-05 -1.0495427e-05 2.6252512e-05 -7.07455e-05 -1.1924494e-05 -0.00010733671
2.1519028e-05 -3.056344e-05 -8.696325e-05 -1.6141936e-05 -3.9381237e-05 -4.9763094e-05 -3.350054e-05 2.2480259e-05
2.556459e-05 -6.868531e-05 3.0509793e-05 -7.5478354e-05 4.9351023e-05 -2.1684434e-07 -8.904905e-05 -6.216237e-05
-1.0099472e-05 1.4486121e-05 -4.4546505e-05 -0.000103417085 -2.9807894e-05 -6.276693e-05 -3.92042e-06 2.3383294e-05
-1.1712744e-05 -4.0657833e-06 4.036829e-05 1.1610593e-05 -3.5319033e-05 5.1173555e-07 -1.5850206e-05 -3.224137e-06
4.443483e-05 -5.52273e-05 -5.2640255e-05 2.8758606e-05 -0.07855399 -0.11626376 0.026868427 0.05611634
-0.029472463 -0.14934306 0.11213878 -0.008926541 -0.09809546 0.18500246 -0.08091522 -0.10452419
0.1368392 -0.1500256 -0.15926099 -0.17199706 -0.04155281 -0.11964276 -0.082670175 -0.09027268
0.24563636 0.1543551 -0.052620884 0.039395016 -0.07001928 -0.104651034 -0.011978173 -0.041999437
-0.053010304 0.20185111 0.05603542 0.032376483 -0.15816168 0.12304504 0.034676418 0.18463545
-0.15618584 -0.14063096 0.10860341 0.13776304 -0.029324401 -0.052111655 0.07381281 0.11573777
0.09987359 -0.05979227 0.11306138 0.19604053 -0.049694903 -0.123679265
00000000: d61e 0d3d ed16 313d 7369 9cbc 0130 f5bc
00000010: bcff ac3c bbe7 3ebd 018a 6abc 0e43 dbbc
00000020: 5e71 123d adb4 7cbc 6f0b 893d 825f 59bc
00000030: 6dda 8bbb 4a7b 56bd 1702 9a3c 84a2 44bc
00000040: f3f5 39bc 221f ccbc ce0c 173d a94a 483c
00000050: 53c0 2cbd 6c0e 093d 7c8e 203c 7460 95bc
00000060: 81dd 0fbd 1ee7 6abd f2a0 803d 9b6b b13c
00000070: f30b 8ebc 662d d3bb 1a40 8b3d fb22 5abd
00000080: b0e1 31bc cd21 21bc 6660 823c 577e 7b3d
00000090: 7bab 0d3d f4a8 72bb f33e 7e3d 30d5 cfbb
000000a0: 6bc0 c23b 42b8 d83b 77dd 7bbd 2c1f febc
000000b0: a961 00bd e396 4e3d 2ac4 5bbc 16b0 8e3d
000000c0: f52e 903c 544c 2fbd 7967 0338 2bf1 30b8
000000d0: b1d5 0fb8 b8a0 19b8 9aac b9b6 d7d6 eeb7
000000e0: f1ad a338 d589 a3b7 af88 8138 8415 30b7
000000f0: d738 dc37 335d 94b8 500f 48b7 f519 e1b8
00000100: c383 b437 3e31 00b8 0a60 b6b8 8b68 87b7
00000110: 482d 25b8 b7b8 50b8 ee82 0cb8 fd93 bc37
00000120: 8a73 d637 250b 90b8 48ef ff37 224a 9eb8
00000130: 42fe 4e38 b8d5 68b4 d8bf bab8 2b5d 82b8
00000140: e770 29b7 6a09 7337 72d7 3ab8 a0e1 d8b8
00000150: f70b fab7 bda1 83b8 278c 83b6 3e27 c437
00000160: da81 44b7 d06c 88b6 1f51 2938 1ecb 4237
00000170: 8623 14b8 335e 0935 0ff6 84b7 405e 58b6
00000180: 895f 3a38 dda3 67b8 0bca 5cb8 a33e f137
00000190: eae0 a0bd b21b eebd 2d1b dc3c 3fda 653d
000001a0: 3c70 f1bc 63ed 18be 04a9 e53d a040 12bc
000001b0: 46e6 c8bd 4971 3d3e e1b6 a5bd c710 d6bd
000001c0: 931f 0c3e 50a0 19be 5015 23be ff1f 30be
000001d0: 4833 2abd 4307 f5bd fb4e a9bd e2e0 b8bd
000001e0: 1988 7b3e 430f 1e3e ff88 57bd ab5c 213d
000001f0: 4566 8fbd 4853 d6bd 1940 44bc 9a07 2cbd
00000200: 5521 59bd 0fb2 4e3e 6685 653d 349d 043d
00000210: 23f5 21be 0aff fb3d dc08 0e3d 1311 3d3e
00000220: 2eef 1fbe 9001 10be 776b de3d c111 0d3e
00000230: ba39 f0bc 0873 55bd 2c2b 973d ed07 ed3d
00000240: 868a cc3d bde8 74bd ba8c e73d d9be 483e
00000250: e28c 4bbd 8e4b fdbd
