Echoes in the Loop_ Diagnosing Risks in LLM-Powered Recommender Systems under Feedback Loops/A-LLMRec/pre_train/sasrec/ml-1m/SASRec.epoch=50.lr=0.001.layer=2.head=1.hidden=50.maxlen=50.pth (torch, 886082 bytes, 28 tensors)

item_emb.weight f4 [3694, 50]
000000 e6 99 bc 3c a1 27 01 3d 34 02 27 bc da 90 0d 3d
       0.023022603 0.031531934 -0.010193396 0.03456197
000010 9c 32 22 bd fd 5f 0a bc b9 38 92 bb 33 70 5a bc
       -0.039599046 -0.008445737 -0.0044623283 -0.013332414
000020 98 4f c2 3c 62 4c 89 3b ae e7 42 bc 32 1b 6c 3c
       0.023719594 0.0041900137 -0.011896057 0.014410781
000030 de cb cc bc 60 e0 62 bc 2e 0e 8e bc a5 d7 42 bc
       -0.024999555 -0.0138474405 -0.017340746 -0.011892234
000040 a0 5e b0 ba 64 f0 cc 3b 8e 2b 39 3d b1 04 1c bd
       -0.0013455935 0.0062542427 0.045207553 -0.03809041
000050 f7 6c ee 3c 03 be c6 bc 14 16 4f 3c 94 2c 95 bc
       0.029104693 -0.024260527 0.012639541 -0.018209733
000060 48 c2 93 bd 4b aa f5 3c e1 f4 c2 3c f3 21 8d bc
       -0.072147906 0.029988429 0.023798408 -0.017228102
000070 5c 6c 3f bc d8 b3 1c 3d da 63 3c 3c 9d 09 c0 3c
       -0.01168355 0.03825745 0.011498416 0.023442084
000080 c1 f4 9a 3c fc 71 80 bc 03 96 b4 bc 1c 13 0f 3c
       0.018915536 -0.015679352 -0.022044187 0.008732583
000090 07 6b 2a 3c 50 ad 2d 3d 73 12 c9 3c 96 e3 08 bc
       0.010401494 0.04240161 0.02454493 -0.008355042
0000a0 1f 67 bc 3c 3f 27 66 3c 43 34 9a 3c 6f f0 a0 ba
       0.02299839 0.014047443 0.018823748 -0.0012278686
0000b0 86 7b 96 bc db 87 cb bb b0 37 ca bb 57 44 0c 3a
       -0.018369447 -0.0062112636 -0.0061711892 0.00053507596
0000c0 2e 30 1d bd 60 bd 32 bd 70 84 af 3d 92 b6 c5 bd
       -0.038376026 -0.043637633 0.08570182 -0.09653963
0000d0 77 e5 3d 3d da 93 e9 bc 78 6d 28 3c e7 f3 12 bd
       0.046361413 -0.028512884 0.010280006 -0.035877135
0000e0 b5 8c ea bc 6b ea 90 3c fc dc 9d 3c a5 e1 47 3e
       -0.028631547 0.017689904 0.019270413 0.1951967
0000f0 c7 c3 85 3c 3d 0f c6 3b b7 e6 25 bd b4 d4 0f bd
       0.016328705 0.006044297 -0.04050323 -0.03511496
000100 f4 f7 f2 3d 9a 01 82 bd bc 1a 0b 3c 74 aa bb bc
       0.118636996 -0.06347962 0.008490261 -0.022908427
000110 ae f1 e2 3d ca 96 1f bd d0 fa 8d bd 9d e6 70 be
       0.11081253 -0.038962163 -0.06932604 -0.23525472
000120 a2 5b 25 bd 5d 2c 8d 3d 4c ba 01 bd d1 bf 7f bd
       -0.04037059 0.06893227 -0.031671807 -0.06243879
000130 6e 91 ea bb 5e 0d 46 bd eb 6b c9 bd dc 3a 6d bc
       -0.00715845 -0.04835259 -0.09835037 -0.014479365
000140 0d 94 98 3c 20 a5 a0 bd 5f b0 ab bc 5c 93 8f 3d
       0.018625284 -0.07843995 -0.020958124 0.070105284
000150 21 ca 90 3c e5 f6 60 3d af db e9 bc 0b 1c 90 3c
       0.017674508 0.054922957 -0.028547136 0.017591497
000160 85 ac c9 bc 04 9d f1 3c 54 c6 a8 3b dd b5 09 bb
       -0.024618397 0.029493816 0.0051505957 -0.002101294
000170 f5 36 83 3d 40 8f a5 bd 32 3f 90 3d 50 60 54 3a
       0.064069666 -0.080839634 0.070433035 0.000810151
000180 18 91 19 be 3e 55 a5 3d cf 21 51 bd 24 96 88 bc
       -0.14996755 0.08072899 -0.051057633 -0.016673155
000190 10 5f 32 3c 24 47 ce bd 7a c0 33 bd 4d c1 7d 3d
       0.0108869225 -0.10072163 -0.04388473 0.061951924
0001a0 af 5b 49 3c ae c1 4f bd c6 2b 1f bd 4e 65 bc 3a
       0.0122899255 -0.050721817 -0.038860105 0.0014373453
0001b0 03 6f c9 3c dc a9 91 3e fe 09 26 3d 6b af 74 bd
       0.024589067 0.28449905 0.040536873 -0.059737604
0001c0 b0 04 5f bd ce eb 73 bc ff bd 28 3e bf 4a c8 bd
       -0.05444783 -0.014887763 0.16478728 -0.09779882
0001d0 1d 46 b5 bc 53 e5 e8 bb 41 a9 0e 3e 19 4d 23 bd
       -0.02212816 -0.0071074157 0.13931753 -0.039868448
0001e0 6c 59 fd bd 1f 7b 97 be ec 81 23 bd 0c ac 01 3e
       -0.123705715 -0.2958612 -0.039918825 0.12663287
0001f0 17 e2 c8 bd fe e6 2d be 96 73 fd 3d 5e a0 65 bc
       -0.09808748 -0.16982648 0.12375562 -0.014015285
000200 24 95 66 bd 78 a5 f8 bd 73 0d 12 be ec 28 22 be
       -0.056294575 -0.12140936 -0.14262943 -0.15835923
000210 79 9c 50 3d bf 77 69 3c dd 23 87 3d bf c1 05 3e
       0.050930474 0.014249741 0.06598637 0.1306219
000220 13 c8 90 3d c3 e2 65 3d 3e 06 5d bd d3 e3 13 3e
       0.07069411 0.05612446 -0.05396103 0.14442377
000230 e1 20 d0 bd cd 2d 76 3d ad 78 1b 3e 7a a0 f5 bc
       -0.10162521 0.060102273 0.15182753 -0.029983748
000240 cd 2d 56 3d de 21 7b 3c 0c 73 d9 bd b9 14 03 3d
       0.052289773 0.015327899 -0.106176466 0.032002185
000250 52 ff c8 bd 9b e5 65 3d 27 df dc bc c3 a7 07 be
       -0.098143235 0.056127172 -0.026961876 -0.1324759
000260 6f 8e 8c 3d 6b 28 62 3d 89 12 5f 3d 10 b5 de bc
       0.068631046 0.055214327 0.054461036 -0.027185947
000270 3a 6d 0c bd 66 56 eb 3d a8 05 b4 bc be bc 12 3e
       -0.034283854 0.114910886 -0.021975353 0.14329812
000280 5c ba 8b bd 8e 03 ad 3d 79 05 c6 bd 16 98 03 be
       -0.068226546 0.08447944 -0.096690126 -0.12850985
000290 0d cb 18 3e 72 48 e9 bc 2f 77 11 bb 44 ca c5 3d
       0.14921208 -0.028476927 -0.0022196283 0.0965772
0002a0 70 f4 f4 3d 36 c3 10 be f2 18 53 bd 8c 40 5b be
       0.11960685 -0.14136967 -0.05153746 -0.21411341
0002b0 ea 26 38 bd a1 9b 38 3e 93 5d 4d be b3 37 9b 3a
       -0.044958986 0.18028118 -0.20055227 0.0011842161
0002c0 a1 e0 0d 3e 31 9d 22 bd 41 f9 8c bd 9c 9e 44 3d
       0.1385522 -0.03970069 -0.06883479 0.048002824
0002d0 70 7c c3 bd 08 92 16 be c8 d5 d1 3d ef f9 38 3d
       -0.09545219 -0.14704144 0.10245854 0.04516023
0002e0 f6 a4 43 3d 22 66 ce 3d a6 df 33 3e 31 5b 50 bd
       0.04776474 0.10078074 0.17565784 -0.050868217
0002f0 cf db d3 bd 0b eb 01 3d 56 ed 1b be 4e b8 d0 3c
       -0.103446595 0.031718295 -0.15227255 0.025478508
000300 cb 01 c0 3d 48 d4 f0 3d c5 ce 97 bd c3 84 82 3c
       0.09375342 0.117592394 -0.07412485 0.015932446
000310 54 49 ca bd b4 7b d1 3c dd e7 6d bd 13 49 9b 3d
       -0.098772675 0.025571682 -0.05808245 0.07582297
000320 ab cb 62 3b 48 32 6a bd 3a e6 4a bd 6c 50 21 3d
       0.003460626 -0.05717686 -0.049535967 0.039383337
000330 c5 05 c0 bc 0c 22 1f bd 52 1d 52 3c 40 29 ca 3d
       -0.023440251 -0.03885083 0.012824373 0.09871149
000340 0f 80 9f bc e6 fe 28 3e ee 75 60 bc 2c 00 b4 3b
       -0.019470243 0.16503486 -0.013699992 0.0054931846
000350 c5 c1 1e be d1 d8 10 bd fc 89 e7 3d 88 70 9a bc
       -0.15503605 -0.035363022 0.11305615 -0.018852487
000360 82 06 32 bd d8 a4 94 bd 82 f2 8d 3d b9 46 8d bd
       -0.043463238 -0.07258004 0.0693102 -0.06898255
000370 67 3b 13 bd 8a 18 99 be ae ad 19 bd c4 54 d5 3d
       -0.035945322 -0.29901534 -0.03751915 0.104165584
000380 a6 23 68 bd ef a1 f6 bd 93 21 dd 3d 17 7b 54 bd
       -0.056674622 -0.12042605 0.107974194 -0.0518752
000390 79 59 a2 bd 72 60 25 bd 46 b0 d6 bd a1 6f 21 bd
       -0.07927222 -0.04037518 -0.1048284 -0.0394131
0003a0 11 01 d6 3c 57 e1 e6 3d ac d4 ce 3c db da 51 3d
       0.026123555 0.11273449 0.025247894 0.051234107
0003b0 79 eb 99 3d 6e 9f 4e bc 46 0b 08 be ed 2b 22 3e
       0.07515616 -0.012611253 -0.1328555 0.15837069
0003c0 0e c0 bb bd b3 b3 9f 3d ea 64 67 3d fb 02 04 3d
       -0.09167491 0.07797947 0.056492724 0.032229405
0003d0 23 e3 de bc a4 fb 17 bc 38 c4 cd bd 7f 5f cf bc
       -0.027207917 -0.009276304 -0.100471914 -0.02531409
0003e0 5f 4a 40 be 9c 95 27 3e 4f 68 2b bd 79 93 7c bd
       -0.1877837 0.16365665 -0.041847523 -0.06166408
0003f0 3c e9 8c bd 5a 1c 06 3d 74 c7 4c bd 97 9d 2d 3b
       -0.068804234 0.032741882 -0.0499949 0.0026491636

pos_emb.weight f4 [50, 50]
000000 42 f7 10 bd 29 e3 22 3e f4 0b 10 bc af 2a c4 bd
       -0.035392053 0.15906967 -0.008791912 -0.09578454
000010 c2 2b 57 3d ac e3 13 bd 90 76 34 3e 92 34 0f 3e
       0.052531965 -0.036105797 0.17623353 0.13984898
000020 2a 34 d6 bd 34 7c 05 bf e8 61 77 3e 39 9c 99 3e
       -0.10459168 -0.52142644 0.24158442 0.30002
000030 46 ee 64 bb ff 40 be 3d 0c 4b c7 ba 03 54 e0 3d
       -0.003493206 0.09289741 -0.0015204861 0.10953524
000040 93 f4 32 bd 1f 18 94 ba 9c 64 58 3c ab 9e 62 3e
       -0.043690275 -0.0011298693 0.013207581 0.2213084
000050 24 12 36 3e 7b 60 90 be 23 5c db be b0 1a c0 bb
       0.17780358 -0.2819861 -0.42843732 -0.0058625564
000060 b7 5b dc bc f3 52 c0 bd fb 0e 03 bd 06 45 62 3c
       -0.026899202 -0.09390821 -0.03199671 0.013810402
000070 a9 cb 27 bd 54 a2 aa be 49 8b 33 3e db c0 14 3e
       -0.04096571 -0.33326972 0.17533602 0.14526694
000080 4a 63 0d bf f6 3c cf 3d 9b 0e 32 bc e3 a5 2b 3e
       -0.5522963 0.10119049 -0.01086774 0.167625
000090 eb f2 9a 3e 34 87 4b 3e f4 21 f9 be f1 26 82 bd
       0.30263457 0.19875795 -0.48658717 -0.06355084
0000a0 b8 d2 64 3e 74 06 8e 3d c0 f4 22 3d 82 0d a8 bc
       0.22346008 0.069348246 0.039784193 -0.020514254
0000b0 82 29 de bd 0d 4b 41 be 34 7e a7 be 4a 9e 5c 3e
       -0.10847761 -0.18876286 -0.32713473 0.21544757
0000c0 78 97 bc bd c9 c2 6d 3e 78 30 8f bd 22 66 87 3d
       -0.09208578 0.23218836 -0.069916666 0.06611277
0000d0 83 5a e3 bc bb 70 13 be d8 d4 02 3d 2f 5b 26 bd
       -0.02775312 -0.14398472 0.031941265 -0.040614303
0000e0 03 3c 77 3e 0d 7c 3b 3e ba 53 d4 bd cb 3f c8 be
       0.24143986 0.1830904 -0.10367532 -0.3911117
0000f0 42 69 f6 3d b5 97 ac 3e fd 81 a0 bc 95 6d 34 3e
       0.12031795 0.33709493 -0.019593233 0.17619927
000100 01 1a 21 bd 1a 29 63 3d cf e3 eb bd 54 f0 03 be
       -0.03933144 0.05545912 -0.115180604 -0.12884647
000110 6f a6 00 be a0 2c 24 3e 1a 16 0b 3d d9 b3 59 be
       -0.1256349 0.16032648 0.033956625 -0.21260013
000120 0b cb 8a be 6a d4 50 bd 9b c1 16 bd 21 1d a0 bd
       -0.27108034 -0.050983824 -0.03680573 -0.07818056
000130 50 15 2e be 52 68 0f 3e 6a f9 fe 3d 79 11 4d be
       -0.17000318 0.14004639 0.12449916 -0.20026197
000140 f5 a1 82 3d 62 66 1b 3e c6 6a 01 bf 94 d6 b7 bc
       0.06378547 0.15175775 -0.5055355 -0.022441186
000150 9c f2 e2 3c 86 f9 17 3e 4e 92 0e 3e 72 37 04 3e
       0.027703576 0.1484128 0.13922998 0.12911776
000160 dd 80 53 be a4 32 8d bd 55 84 73 3e 24 94 f2 3d
       -0.20654626 -0.068944246 0.2378095 0.11844662
000170 4c 35 89 3d d1 77 e3 b9 91 bc 3f be c6 c3 72 be
       0.06699619 -0.00043386084 -0.18724276 -0.23707494
000180 7e 00 bc be e4 48 b3 3d 55 cd fd 3b 5c e9 72 3d
       -0.36719126 0.08754137 0.0077454248 0.05930458
000190 b3 77 b7 bc 00 63 87 3d e4 c0 33 3c bb bb 9f bd
       -0.022395944 0.066106796 0.010971282 -0.077994786
0001a0 d8 f3 e3 3c d9 9e df bd 68 25 58 3e 19 7f 6a 3e
       0.027826235 -0.1091897 0.2110802 0.22900046
0001b0 a0 4a 3e bd 33 4b b5 be 7d 16 2c 3d a1 a7 56 3e
       -0.046457887 -0.35408935 0.042013634 0.20962383
0001c0 db 67 00 be ba 27 2d 3e 51 ba 29 bd df 45 0d 3e
       -0.12539618 0.16909686 -0.04143745 0.13796185
0001d0 6b db 56 3a 66 82 97 be 5b 41 0a be 3b 33 2b 3e
       0.0008196148 -0.29591674 -0.13501494 0.16718762
0001e0 2e ac 15 3e f6 d6 13 be db 4b 52 be b2 e3 72 3e
       0.14616463 -0.1443747 -0.20536749 0.23719671
0001f0 dc 22 2d 3d 02 b9 47 bd 3e 53 af be 3b 74 c9 bb
       0.042269573 -0.04876042 -0.34243196 -0.006147889
000200 84 35 09 3e b9 60 03 be 6c 55 33 3d f1 67 b6 3e
       0.13399321 -0.12829866 0.043782637 0.35626176
000210 36 37 e5 be 7a 96 aa bb d3 da 17 3d e9 98 5b 3d
       -0.44768685 -0.0052059265 0.03707392 0.053612623
000220 41 af 20 3e ac 0b 94 3d b1 56 26 bd b6 6c 6c 3d
       0.15691854 0.07228789 -0.04061002 0.057720862
000230 14 91 65 3e cc 8c fb bd 87 af 23 3d 17 86 83 bb
       0.22418624 -0.12282714 0.039962318 -0.0040137875
000240 80 70 65 be 96 c2 6f be dd c3 98 be 05 e7 a4 3d
       -0.22406197 -0.23414072 -0.29836932 0.08051876
000250 14 91 19 bd 50 07 3c 3d 02 a0 b2 bd dc ce 2b 3e
       -0.037491873 0.04590541 -0.08721925 0.1677813
000260 ab 19 3d bd 99 93 14 3d 51 8e d8 3c 62 ec 02 bd
       -0.046167057 0.036273573 0.02643505 -0.031963713
000270 75 c1 5f 3e fd f3 7c 3e 6c d9 78 bc e0 fd 44 be
       0.21851142 0.24702449 -0.015188556 -0.1923747
000280 20 b4 15 3e 28 a1 6d 3e b3 6e ff 3c 22 67 49 3e
       0.14619493 0.23206007 0.031180715 0.19668248
000290 78 bc f9 bc e0 15 dd bd f5 8f c1 bd d6 e5 b9 be
       -0.030485377 -0.10795188 -0.09451286 -0.36308163
0002a0 81 37 d1 bd 94 c6 ac 3d b6 47 89 3d fa d2 6e be
       -0.10215665 0.08436313 0.06703131 -0.23322669
0002b0 cb 05 7c be 73 76 4a 3e 8d c4 58 3c e8 71 64 bd
       -0.24611585 0.19771747 0.013230455 -0.055772692
0002c0 9b bb 97 be e4 fc 12 3e 5b 3f 84 3e 51 8b 55 be
       -0.2963532 0.14354283 0.25829586 -0.20853926
0002d0 d5 3b 19 be 9a 50 f5 3e 08 e7 ee be 4c a8 3b bc
       -0.1496423 0.47913057 -0.46660638 -0.011453699
0002e0 06 ec 4f 3d d3 5a 39 3e 1a 89 9d 3d a1 42 09 3d
       0.0507622 0.18101053 0.07692166 0.033510808
0002f0 13 0e 2e 3e e2 d6 2f bd a3 dd a6 3e 20 d5 49 bc
       0.16997556 -0.042929538 0.3259097 -0.012318879
000300 a3 91 b0 3d 0b 1c 6c 3d 6c 20 2f be 75 e1 8c be
       0.08621528 0.05764393 -0.17102212 -0.2751576
000310 24 fb 76 be f7 6e d7 bd 00 dd 0c be f8 79 1a 3d
       -0.2411924 -0.10519212 -0.1375618 0.037713975
000320 61 fe 4a 3d d0 1e 67 3e a2 b6 7e bc c8 61 cd bd
       0.049559 0.22570348 -0.015546473 -0.10028416
000330 58 19 90 bc 0b 77 01 bb f0 fa 50 3e 44 f0 69 3e
       -0.01759021 -0.0019754793 0.20408225 0.2284556
000340 c5 c8 20 be 99 16 77 be b9 88 e5 bd be 90 80 3c
       -0.15701587 -0.24129714 -0.112077184 0.015694018
000350 09 14 96 3d 1b 81 29 3e 14 74 9a 3d 04 3a 8a 3a
       0.0732804 0.16553156 0.075416714 0.0010545854
000360 3b ba 48 bd ac 38 8b be df 35 38 be 38 4f d2 3e
       -0.04900573 -0.27191675 -0.179893 0.41076064
000370 a6 94 8c 3e 7f 23 2e be ca 0d 24 be e0 87 64 3d
       0.2745716 -0.17005728 -0.16020885 0.055793643
000380 62 72 b9 3d cf 62 87 3d e3 39 f7 bd 21 a0 09 3e
       0.0905502 0.06610643 -0.12071588 0.1343999
000390 41 a7 1c 3e c6 ce 61 be 59 6e c9 3c 7f 69 90 3e
       0.15298177 -0.22051534 0.02458875 0.28205487
0003a0 9d 0c 15 bf e2 a9 59 be ca 01 03 3e cd 23 02 bd
       -0.5822237 -0.21256211 0.12793651 -0.031772424
0003b0 5b 87 16 3e b8 3f f2 bd c0 f7 12 3e bf b9 95 3d
       0.14700072 -0.1182856 0.14352322 0.07310819
0003c0 df 14 d3 3d 42 57 ad bd c1 66 45 3d 5c 28 18 be
       0.10306715 -0.08463909 0.048193697 -0.14859146
0003d0 00 93 9b be 4e b4 c4 bd 81 2c 88 be fc 8d cb 3b
       -0.3038559 -0.09604703 -0.26596454 0.006211994
0003e0 d0 24 c0 3c 6f 8b 42 3d 39 78 94 be c9 3b 38 bd
       0.023455054 0.047496255 -0.28997973 -0.04497889
0003f0 63 72 b1 bd 94 de 53 3e 88 0b 8d 3c 35 0f 50 3c
       -0.08664396 0.20690376 0.017217413 0.012698938

attention_layernorms.0.weight f4 [50]
000000 86 6f 4b 3f b7 08 61 3f 66 46 3f 3f c1 b0 50 3f
       0.79467046 0.8790392 0.74716794 0.81519705
000010 5d 81 5f 3f 1c 42 87 3f 79 a0 3c 3f 3c 73 84 3f
       0.8730677 1.056705 0.7368236 1.0347667
000020 98 67 8f 3f b9 35 6f 3f f7 df 31 3f 95 d4 5a 3f
       1.1203489 0.9344135 0.6948237 0.85480624
000030 49 89 8c 3f f1 61 5f 3f 54 dd 88 3f 51 69 52 3f
       1.0979396 0.8725882 1.0692544 0.8219195
000040 8c bf 85 3f 30 5c 75 3f 0c 70 87 3f 09 db 96 3e
       1.044908 0.9584379 1.0581069 0.29463986
000050 bb a0 81 3f 64 b5 52 3f 45 25 61 3f 92 3c 72 3f
       1.0127176 0.8230803 0.87947494 0.9462367
000060 36 7f 81 3f 3e 2c 88 3f c2 cc 2a 3f d0 b6 2e 3f
       1.0116947 1.0638502 0.66718686 0.682477
000070 a6 34 21 3f 18 56 80 3f 7d 8d 76 3f 03 02 6b 3f
       0.6297096 1.0026274 0.96309644 0.91799945
000080 9a 43 26 3f 28 c8 59 3f 32 29 70 3f 19 6b 88 3f
       0.649469 0.8507104 0.9381286 1.0657684
000090 49 38 78 3f 19 53 94 3f 9a 5e 28 3f fb 0c 6f 3f
       0.96960884 1.1587859 0.6576935 0.9337918
0000a0 13 05 0f 3f 58 85 2c 3f f4 c2 a9 3f 06 83 52 3f
       0.5586712 0.67390966 1.326262 0.82231176
0000b0 69 bf 93 3f 95 8e 6e 3f e5 c5 6f 3f 9d f3 5b 3f
       1.1542789 0.9318631 0.9366134 0.859186
0000c0 08 5f 57 3f f5 82 35 3f
       0.8412938 0.7090295

attention_layernorms.0.bias f4 [50]
000000 ec 4d 6b be c2 cb df bd ba 3d 0f 3e 6f 12 88 be
       -0.22978944 -0.109275356 0.1398839 -0.26576564
000010 7b ad 9d 3d 4a ff 3f 3e 81 ab 6a 3e fc 5a 13 bd
       0.076991044 0.18749729 0.22916986 -0.03597544
000020 5e 44 9a 3d af 2c fa 3d 67 a8 41 3e e9 4f 83 be
       0.07532571 0.12215554 0.18911897 -0.25646904
000030 1e 0c f0 bb 8a d5 9e 3c 2a b8 da 3d 5b 81 56 be
       -0.007325663 0.019388933 0.10679658 -0.20947783
000040 3e e0 2b be be 6c 6c bc 1c 31 af 3c ae 86 d1 3e
       -0.1678476 -0.014430223 0.021385722 0.40923065
000050 80 9e da bc 55 08 b0 bd 24 37 46 be 2c a4 c3 3d
       -0.026686907 -0.08595339 -0.19356972 0.09552798
000060 76 58 b7 3a 36 02 e4 bd 9a 12 94 be f1 10 3e be
       0.0013988155 -0.11133234 -0.28920442 -0.1856115
000070 c9 54 97 3e 6d 22 a9 3b 64 ef 2c 3d 33 8a d8 bd
       0.29556873 0.0051615746 0.04222049 -0.105732344
000080 aa d8 4e be c9 ba e6 3d 84 67 95 3e 2c 82 b5 bc
       -0.20199838 0.11266095 0.2918054 -0.022156797
000090 3b 16 7c bc 64 5e b6 bd 5f 8d a0 bd 8f 98 4a 3e
       -0.0153861595 -0.08904722 -0.078394644 0.19784759
0000a0 68 f5 49 3e 6d 88 23 be d7 77 6c bc 0b 35 7a 3e
       0.19722521 -0.15970011 -0.014432869 0.24434297
0000b0 54 80 73 be 70 ce 03 3d a0 c2 4f be 35 7c e5 bd
       -0.23779422 0.032179296 -0.20289087 -0.11205331
0000c0 a4 83 ac 3d a6 47 1c be
       0.08423546 -0.15261707

attention_layernorms.1.weight f4 [50]
000000 f9 0c 63 3f fa 53 6c 3f 2d aa 3b 3f be c0 4f 3f
       0.8869167 0.9231564 0.7330654 0.81153476
000010 26 4a 41 3f f6 e8 71 3f c4 5f 68 3f 2a 8c 7c 3f
       0.75503767 0.94496095 0.90771127 0.98651373
000020 01 2f 6b 3f e2 84 74 3f 95 32 4b 3f dc 4e 8b 3f
       0.918686 0.95515263 0.7937406 1.0883441
000030 2e 14 95 3f ac 52 5d 3f 18 cf 7d 3f 60 73 70 3f
       1.1646783 0.8645427 0.99144125 0.9392605
000040 8b 4c 85 3f 9b ba 7d 3f d2 80 90 3f fa 79 28 3f
       1.0413984 0.9911286 1.1289313 0.6581112
000050 34 d2 65 3f 2a 50 66 3f dc 91 82 3f e2 bd 68 3f
       0.8977387 0.8996607 1.0200763 0.9091474
000060 87 2b 63 3f 7c f3 8b 3f d6 8b 5f 3f fc 25 87 3f
       0.8873829 1.093368 0.8732275 1.0558467
000070 90 eb 4c 3f d4 14 6e 3f dd fb 44 3f de e8 71 3f
       0.8004694 0.9300053 0.7694681 0.9449595
000080 21 e1 37 3f ca 24 25 3f 48 49 6c 3f 98 7d 93 3f
       0.71827894 0.6450926 0.9229932 1.1522703
000090 94 20 74 3f 10 f5 8a 3f 6c 3a 54 3f 7f 64 8d 3f
       0.9536221 1.0856037 0.82901645 1.1046294
0000a0 c0 83 39 3f 59 5a 43 3f 8d 33 81 3f 8e 70 6d 3f
       0.7246666 0.76309735 1.0093857 0.9274987
0000b0 36 03 88 3f de 24 8c 3f ec 1b 82 3f c8 42 6b 3f
       1.062598 1.0948751 1.0164771 0.91898775
0000c0 4b c9 34 3f e1 cf 53 3f
       0.7061965 0.82739073

attention_layernorms.1.bias f4 [50]
000000 55 6d fb 3d a5 2f 0a bd d4 fa b2 3b a6 2e 4b bd
       0.12276713 -0.033736844 0.00546203 -0.049605034
000010 2c 0f 21 3e 14 3c df bb 4d c8 be 3d 43 28 d0 3d
       0.15728444 -0.006812582 0.09315548 0.10163929
000020 3c a6 1f be 49 e8 1c ba c1 6a 1e 3d 4c f8 ae bc
       -0.15590757 -0.0005985541 0.038676027 -0.021358632
000030 78 e8 c5 3c 81 d3 54 3d 4c b9 f6 bc bd 35 2c be
       0.024158701 0.05195952 -0.030117653 -0.16817375
000040 e3 e1 aa 3d aa 68 96 3b a0 2e 08 bd 2b 59 a7 3d
       0.08343866 0.0045901136 -0.03324759 0.08171304
000050 08 d3 41 bc ab d9 4f 3d fe f9 89 3d 32 f3 fa bc
       -0.011830099 0.050744694 0.06737135 -0.030633543
000060 22 f7 b9 bd 31 b1 fc 3c 60 9a 71 bd 48 03 db bd
       -0.0908034 0.03084621 -0.058985114 -0.10693985
000070 7b 52 83 3c 2b 0e c9 bd e3 25 66 3d 84 e3 a5 bc
       0.01603054 -0.098171555 0.056188475 -0.02025009
000080 9c d0 70 bd 01 48 c2 bd 2c 6f 0f be f2 69 a7 bd
       -0.058792695 -0.0948639 -0.14007252 -0.08174504
000090 b0 d8 15 bd 55 6c 3f bc d5 6c 4f 3c 36 f6 a0 bd
       -0.036583602 -0.011683543 0.012660225 -0.07859461
0000a0 b3 d3 8a 3d 6b ed d3 3c 11 b4 8d 3c 4b cf 03 be
       0.0677866 0.025870046 0.017297776 -0.12872045
0000b0 ae 6e e6 3c f9 88 9b 3d 7c c1 3e 3d fd 78 14 bd
       0.028128948 0.07594485 0.04657124 -0.036248196
0000c0 d1 5a f6 3d 3c f6 14 be
       0.120290406 -0.14547056

attention_layers.0.in_proj_weight f4 [150, 50]
000000 73 56 d1 bd b3 3d 71 be 6e a8 b5 3d 7e 32 07 bd
       -0.10221567 -0.23558693 0.08870016 -0.033007137
000010 9f f7 97 bd 67 16 a2 bb 35 37 ae 3d d9 1b 87 3d
       -0.07420277 -0.004946518 0.08506624 0.065971084
000020 b9 5e 05 be af dd 7b bd 4c 66 73 bd 61 ac 44 3c
       -0.13024415 -0.06149071 -0.05942373 0.012003989
000030 e4 ed 37 3e 2e 74 92 bd 0b b0 cd bc ac 8e 40 be
       0.17961842 -0.07151066 -0.025108358 -0.18804425
000040 13 4c c8 bd 6c 9f 5d 39 fc 04 8f 3d f7 fe f5 3d
       -0.09780135 0.00021135592 0.069833726 0.12011521
000050 3d 63 cd bb 69 1c 37 bd 38 d8 55 be 2c 41 bf bc
       -0.0062679336 -0.04470483 -0.20883262 -0.023346506
000060 ed b1 0c 3d 46 2b 80 3d 07 c5 a8 bd e6 09 24 3b
       0.03434937 0.06258254 -0.08240705 0.0025030314
000070 a8 dc 2a 3e 43 65 8e bd 23 e3 14 bd be c9 a0 bc
       0.16685736 -0.06952908 -0.036349427 -0.019627448
000080 a5 41 f5 bb 0b b4 a6 3d ec a4 24 3d 01 c9 ab 3d
       -0.007484632 0.08139809 0.040196344 0.08387948
000090 67 11 87 3d 1c dc 94 bd 1b 72 04 3e 5b c5 8f 3d
       0.06595116 -0.07268545 0.12934153 0.070200644
0000a0 1c c1 81 bc 02 c1 8b 3d 83 0c 29 be 3e 17 97 3d
       -0.015839152 0.06823923 -0.16508679 0.0737748
0000b0 e6 36 3a 3d 54 bb 31 3e 1a 20 93 bc bf b0 a0 bd
       0.04546251 0.17356616 -0.017959643 -0.07846212
0000c0 a6 ad 88 bc e7 83 93 bd ee c6 8c bd e9 c7 84 bd
       -0.016684365 -0.07202893 -0.0687388 -0.06483442
0000d0 ba 5c c7 3d 87 0f 8c 3c bd 36 90 bd ca 7e 75 3c
       0.09734483 0.017097248 -0.070416905 0.014983842
0000e0 72 06 cf bc c9 78 ec bc 39 40 8c 3c fd c9 84 bd
       -0.025271628 -0.028866189 0.017120467 -0.06483839
0000f0 5c 41 11 bc b5 28 ae 3c 17 ff 28 3d 96 07 a5 bd
       -0.008865681 0.021259645 0.041258898 -0.080580875
000100 f5 f5 3b 3b b6 38 ee bc 3b 3f 43 3c ce a0 f8 3c
       0.0028680537 -0.029079776 0.011916931 0.030350115
000110 0d 16 ca bc 50 be ec bd 6e de dc bc d3 6e 7b 3e
       -0.024668718 -0.11559737 -0.026961531 0.24553995
000120 30 98 07 3e f1 36 c9 bc cb 3a a1 3c 71 45 02 3e
       0.13241649 -0.02456233 0.019681355 0.12721802
000130 6a 05 a8 3c 2e 6f 12 be 1d 82 e8 3d 13 5c a3 bc
       0.020510394 -0.14300224 0.11352942 -0.019941365
000140 48 95 51 bc 1e a6 b0 bd 6c 1e 1c 3e e7 4e 18 bd
       -0.012791939 -0.08625434 0.1524598 -0.037184622
000150 c9 db b9 bd 46 fd 54 be 66 b4 c0 3d a1 b8 69 be
       -0.09075124 -0.20799741 0.09409408 -0.22824337
000160 94 95 64 bd 6b 6e a0 3d 4c 2e 9a be e2 27 5a 3e
       -0.05580671 0.078335606 -0.30113447 0.21304277
000170 eb a9 66 3d 1c 26 1b bb 78 24 3c be 4c d5 f9 3c
       0.05631439 -0.0023673838 -0.18373287 0.030497216
000180 36 02 a2 3d 4e 19 93 bd 90 6d d3 3d f4 c2 ca bc
       0.07910578 -0.07182561 0.10323632 -0.024751164
000190 7c 09 bc 3d 28 cf 40 be 92 29 ef 3c 4c 4b cf bd
       0.091814965 -0.18829024 0.029194627 -0.101217836
0001a0 84 0c 2c 3d a0 63 e0 bd bf 19 85 be 56 0f ea 3d
       0.042004123 -0.10956502 -0.25996205 0.11428706
0001b0 e5 05 17 be a7 30 2e 3e 83 f6 ca bd b3 a4 91 3d
       -0.14748342 0.17010747 -0.099103 0.07111492
0001c0 7a 51 aa bd 1c 14 b5 bd f4 f6 15 3d 51 fa da 3c
       -0.08316322 -0.08841726 0.036612466 0.026730688
0001d0 b5 6c 23 be 7b a0 a1 bc 5f 35 30 be 9c d4 05 be
       -0.15959437 -0.019729843 -0.1720786 -0.13069385
0001e0 5e 58 73 3d 90 11 08 3e 12 fc b2 bd e1 c4 13 bd
       0.059410445 0.1328795 -0.08739485 -0.03607643
0001f0 16 82 7e bd 83 ba 06 be 51 b9 21 be 00 b2 94 bd
       -0.06213578 -0.13157086 -0.15793349 -0.07260513
000200 8b 8b b7 bd 97 d9 70 3d 9c 6c 11 be e9 d1 54 be
       -0.089621626 0.05880126 -0.14201587 -0.207832
000210 c8 8b 96 bd 38 6f 63 ba 17 44 69 bd 49 7b 02 bd
       -0.0735088 -0.00086759357 -0.0569497 -0.031855855
000220 af 5e 78 bc 07 ce 75 3c 10 d7 44 3d 52 bc 25 3d
       -0.015159293 0.015002734 0.048056662 0.0404628
000230 80 9c f2 3d 47 d7 1e bc 98 d0 69 bb b6 98 94 3c
       0.11846256 -0.009694881 -0.003567731 0.018139224
000240 32 0e 1d 3d fa 81 fc 3c 3c 1e 8a 3d 95 66 19 3e
       0.038343616 0.030823696 0.06744048 0.14980538
000250 15 c8 dc bd a1 84 6c bd 31 4b d4 bd 1a 3f 7f 3d
       -0.1078035 -0.057743672 -0.10365904 0.062316038
000260 e5 ea 99 3d 5d b4 10 bd f3 ca 07 3e a7 61 25 bd
       0.07515506 -0.035328258 0.13261013 -0.04037633
000270 30 e3 ef 3d cc 52 64 be 2b 36 7f bd b8 59 54 bc
       0.117132545 -0.2229721 -0.062307518 -0.012960844
000280 eb 60 89 3c 7e b4 2b be db b8 13 be ba 32 70 3c
       0.016769847 -0.16768071 -0.14425986 0.014660532
000290 04 2e f8 bd 1d 9c 62 bd c4 fa 8c 3d d6 d5 b5 3d
       -0.12118152 -0.055324662 0.06883767 0.088786766
0002a0 5d 86 16 3d ee 8a 15 3d 28 1f 86 bc 93 ea 8e bd
       0.036749233 0.036509447 -0.016372278 -0.06978335
0002b0 a5 05 44 bb 0e 36 dd bc 62 9a 9e 3d 7a 6f fe bd
       -0.002991059 -0.027003314 0.0774429 -0.12423606
0002c0 8f e9 3e be 24 bc 5a be 06 ef fc 3c 38 41 7d 3d
       -0.18643783 -0.21360832 0.030875694 0.061829776
0002d0 26 e8 ba 3c 5c 99 ea bc cf 1b 34 be 8c 59 5a 3e
       0.022815775 -0.02863758 -0.17588733 0.21323222
0002e0 1f 69 b9 bb 2d 3b fa bd 27 2c 2e 3d bd da fe 3c
       -0.0056582834 -0.12218318 0.042522576 0.031110162
0002f0 de b7 4c 3e 99 a3 f1 3d e6 a5 26 be d2 f9 c7 bd
       0.19992015 0.11798782 -0.16274223 -0.09764446
000300 07 af fb 3d 53 8e 74 bd 79 e7 12 be d8 4a 30 be
       0.12289243 -0.059706043 -0.14346112 -0.1721605
000310 c4 c7 0e bd 73 3a 7f bd 7d a6 27 be b5 e8 79 3c
       -0.03485848 -0.0623116 -0.16372104 0.015253236
000320 04 aa 36 3e e1 5b 25 3e ac 82 af ba 5c 71 cb 3d
       0.17838293 0.1614833 -0.0013390384 0.09933731
000330 d0 78 02 3b 62 d3 74 3d 27 27 ce bd b6 58 b9 bc
       0.0019908436 0.059771903 -0.100660615 -0.022625308
000340 3b fb 22 3e 3d e5 6f 3d 7d d2 a8 bd 0c fc b3 3d
       0.1591615 0.058568228 -0.082432725 0.087883085
000350 48 14 31 3e 72 64 32 3d 1a 56 ad 3d 84 15 12 3b
       0.17292893 0.043552823 0.08463688 0.0022290656
000360 dd 95 24 be cf 66 89 bc fd 92 ac 3d 20 ab 0f be
       -0.16072793 -0.016772656 0.08426473 -0.14030123
000370 02 bb 34 3d 21 e3 0f be e5 d4 72 bd 37 71 60 bd
       0.044123657 -0.14051487 -0.059285063 -0.05479547
000380 e5 60 bc 3d 88 d1 cd bd a5 77 e6 bd 95 3b 27 3d
       0.09198169 -0.100497305 -0.11253289 0.040828306
000390 95 81 53 3e d6 22 bf bc 4c 19 d2 3a cc 09 da bc
       0.206549 -0.02333204 0.0016029268 -0.026616
0003a0 4c 6f 01 3d 95 a1 70 3d b3 0e a4 3c 3d 36 0a be
       0.03160028 0.058747847 0.02002654 -0.13497253
0003b0 f6 1a 56 3d cc ba 8b ba 84 45 af bd be b7 0b 3d
       0.052271806 -0.0010660528 -0.08558181 0.034110777
0003c0 5f 23 1c 3e 19 0a b6 3d 75 78 b0 3d f8 8a 25 3d
       0.15247868 0.08888645 0.08616725 0.040415734
0003d0 62 81 9f bb f1 26 86 3a 4b 38 9a 3d 80 e9 c4 bc
       -0.0048677186 0.0010234994 0.07530268 -0.024037123
0003e0 d8 a5 fc 3c 8d eb 37 be ae e3 c9 bc 47 ba c3 bc
       0.0308408 -0.17960949 -0.024644699 -0.023892535
0003f0 f8 7e f8 bd 46 e5 7e 3d cc 55 d3 3d 11 5e bb 3d
       -0.12133592 0.06223037 0.10319099 0.09148801

attention_layers.0.in_proj_bias f4 [150]
000000 8d 65 aa 3e a1 0f 0e be 6b d5 ef 3c 7f 50 96 bd
       0.33280602 -0.1387315 0.02927657 -0.07339572
000010 16 9a 8b 3b 1f aa c7 3d 95 7b f8 3d 47 1d 2c be
       0.004260312 0.09749245 0.121329464 -0.16808043
000020 3b b5 68 be 98 d5 41 be 2c 02 9c 3e 65 3d 61 3e
       -0.22725384 -0.18929136 0.30470407 0.21996076
000030 79 99 8e 3e 4e 17 51 3e e4 ff b6 3d c2 7c 71 bd
       0.27851465 0.20419046 0.08935526 -0.05895687
000040 51 f4 74 bd 11 e4 3d be 74 c7 b1 3e 6a 8d 9f 3e
       -0.05980331 -0.18544032 0.34722483 0.31162578
000050 99 20 7e be 42 2f 9d 3d e0 1e 72 3e 85 df 1d 3c
       -0.24817123 0.07675029 0.2364459 0.009635811
000060 a9 d2 a6 be e3 16 c3 bd b6 32 70 3e 54 58 41 3e
       -0.32582596 -0.0952585 0.23456845 0.18881351
000070 18 71 05 3e dd bf 64 bd 17 82 4d bd ff 4c a6 be
       0.13031423 -0.055847038 -0.05017289 -0.32480618
000080 96 e7 fb bc cb 0b 8d 3d f3 65 aa be 9b 93 06 be
       -0.030750077 0.06887015 -0.33280906 -0.13142245
000090 61 fc ab be dd 9f cf bd cc fa a7 be 0d 91 43 3e
       -0.33590987 -0.101379134 -0.3280853 0.19098301
0000a0 0d 2b 82 be 73 e7 f6 3d ba 8b 73 be b0 f9 37 be
       -0.2542347 0.12055864 -0.2378377 -0.17966342
0000b0 c5 bb b5 be 8c cc b1 bc ca 98 9e 3e c7 24 2b 3e
       -0.3549482 -0.02170398 0.30975944 0.16713248
0000c0 f7 13 6a 3e 80 62 0d be b5 32 36 b8 44 34 a0 37
       0.22859178 -0.13807106 -4.3439406e-05 1.9097824e-05
0000d0 e3 f6 82 38 dd 6b 2f b9 8e 4e cd 38 a0 32 90 39
       6.244869e-05 -0.00016729483 9.789794e-05 0.0002750354
0000e0 2d a2 5a 36 05 d9 2a b8 5a 92 b2 37 67 7e d7 37
       3.257893e-06 -4.0733274e-05 2.1287404e-05 2.5688858e-05
0000f0 da 75 42 38 33 ee 89 39 f9 00 b1 b8 5b e5 de b9
       4.6362962e-05 0.00026308149 -8.440199e-05 -0.00042514023
000100 94 3c c2 b8 ba 33 2f b9 43 60 b1 38 0b b2 bf 38
       -9.2619244e-05 -0.0001670857 8.457948e-05 9.140753e-05
000110 f1 05 67 38 8f e7 16 39 83 b5 ad 38 c3 4d 68 b9
       5.5080225e-05 0.00014391377 8.283092e-05 -0.00022154213
000120 d8 2b 16 b9 71 a2 80 b8 36 50 8b 39 9d ce a0 38
       -0.00014321448 -6.133773e-05 0.00026571908 7.667879e-05
000130 40 a5 42 b8 a5 46 30 37 25 9c 5a b8 22 a2 53 36
       -4.6407105e-05 1.0506866e-05 -5.212067e-05 3.1535824e-06
000140 e9 19 7d b5 76 52 1e b8 c8 f4 90 39 af 97 5e 38
       -9.428755e-07 -3.7746933e-05 0.00027648197 5.307019e-05
000150 55 e9 bb 37 17 63 1a b9 9e 27 fb b7 b3 c0 9d 38
       2.240079e-05 -0.00014723498 -2.993998e-05 7.5222364e-05
000160 c6 a1 9b 38 fe f6 27 b8 b7 c1 cb 38 66 09 9e b8
       7.4211086e-05 -4.0045932e-05 9.7158765e-05 -7.535778e-05
000170 85 1e 29 38 af a1 a6 b8 ec fe 47 39 76 7e 80 b9
       4.0321163e-05 -7.945613e-05 0.00019073085 -0.00024508283
000180 34 6d 84 b9 cf 2f 0c b7 ca 6f e0 37 64 96 f3 b5
       -0.00025258365 -8.355782e-06 2.6754937e-05 -1.814868e-06
000190 76 8b ce 3d d5 e8 22 be f0 e4 04 be 57 1e f6 bc
       0.10085194 -0.15909131 -0.12977958 -0.030043764
0001a0 3f f6 7a bd f3 be 89 bd 61 db ae bd 6d 56 0b 3e
       -0.061269995 -0.06725874 -0.08537937 0.13607188
0001b0 89 e5 75 3c 99 4b 58 3d fa 36 1b 3e 26 e9 21 bc
       0.015008339 0.05280647 0.1515769 -0.009882247
0001c0 ce 13 7b 3d 8c 84 bb bd 36 4c 3c 3d 19 1f 0c 3d
       0.061298184 -0.09156141 0.045971118 0.034209345
0001d0 65 58 eb bd 42 e8 a1 3d ce 20 33 bd f5 47 0e be
       -0.11491469 0.07905628 -0.043732457 -0.13894637
0001e0 49 82 b8 bd b3 67 c4 3d 31 f2 2c 3e ff ad 95 bd
       -0.09009225 0.095900916 0.16889264 -0.07308578
0001f0 e1 dd de bc ce f8 92 ba 4e d7 82 bd 42 17 35 be
       -0.02720541 -0.0011213066 -0.06388722 -0.17684653
000200 7f cc 78 bc f9 a4 8d bc 32 c7 2a 3d 37 f7 b4 3c
       -0.015185474 -0.01729058 0.041693874 0.022090537
000210 35 6b 8d bc d8 27 c1 bd f5 eb 36 bd 33 e1 22 be
       -0.017263034 -0.09431428 -0.04465862 -0.15906219
000220 ca 86 07 be d4 13 ad 3c f8 00 e4 bd ca 58 e3 bd
       -0.13235012 0.021127619 -0.11132997 -0.111009195
000230 17 6e 5f 3e 29 f3 d2 bd aa a8 d7 3d ad cd da bd
       0.2181934 -0.10300285 0.10530217 -0.10683761
000240 9c 4c e3 3d 1b e8 9e bd 67 6c 77 3d 7d 68 d7 bd
       0.110985965 -0.07759114 0.060406115 -0.105179764
000250 74 74 ed 3d e3 7f df bd
       0.11594477 -0.10913064

attention_layers.0.out_proj.weight f4 [50, 50]
000000 b2 9d 4e be ac 86 c0 bc f1 94 40 bd 62 be a2 bd
       -0.20177343 -0.023501717 -0.04701704 -0.07946469
000010 ec 7e 12 3c 52 6d bd bd 73 c8 15 3d 24 20 ae 3d
       0.008941393 -0.09249367 0.036568116 0.08502224
000020 5d 4e 2b be ee 68 9c 3d 3c e8 ce bd 5d f4 11 be
       -0.16729112 0.07637201 -0.10102889 -0.14253373
000030 fc 46 9b 3d 48 39 1d 3d f7 5d 4e be f9 e2 0f be
       0.075818986 0.038384706 -0.20153032 -0.14051427
000040 f0 94 8d 3e 48 59 54 be 47 fa ad 3d 2d b0 03 bd
       0.27652693 -0.20737183 0.08495002 -0.032150436
000050 90 e5 ea bd 49 24 61 3d 6c 3f 2c be 5d 6d 35 bd
       -0.11469567 0.054966245 -0.16821069 -0.04429375
000060 fd 32 ac bd ac 36 90 3d 27 d1 1a be a8 ec e8 3d
       -0.08408163 0.07041678 -0.15118848 0.113732636
000070 5a 33 f4 bd c0 ec be bc ff 14 8c bd e3 07 df 3d
       -0.11923857 -0.02330625 -0.06839942 0.10890176
000080 5c d4 10 3e 7d 2a f6 bd 0c a6 ce 3e 12 6e 16 3d
       0.14143509 -0.12019823 0.4036106 0.036726065
000090 07 a5 77 3e 48 d1 a3 3e 60 7c f2 bd dd a5 3d 3e
       0.24184047 0.31995606 -0.11840129 0.18520303
0000a0 a6 bb 1e be 43 63 74 be 0d 88 f7 3c 25 5b 83 3e
       -0.1550127 -0.2386599 0.030216241 0.25655475
0000b0 ab d8 4f be f8 5e 21 be af 99 5b 3e 2b f3 4d bc
       -0.20297496 -0.15758884 0.21445344 -0.012570183
0000c0 da 6b df bd 1a 4e 8b be 8b d9 7a 3d f8 67 5d bc
       -0.10909243 -0.27208024 0.06124262 -0.013513558
0000d0 ea 20 e2 3d 23 8d ac bd 7c e7 3a be 08 5b 12 be
       0.11041434 -0.08425357 -0.18252367 -0.14292538
0000e0 45 46 10 be b2 5c 47 be a1 73 91 3d 0e 9b 98 3d
       -0.14089306 -0.19468954 0.071021326 0.07451449
0000f0 1f 7b 24 3d 55 10 13 3d c3 e8 c2 3d af f6 85 bd
       0.04015648 0.035904247 0.09517052 -0.06541192
000100 ed 98 84 3d b9 62 17 bd 47 29 3b 3e b7 9d 5b bc
       0.06474481 -0.036959384 0.18277465 -0.013404301
000110 86 07 62 bb 58 02 7c 3c 33 49 fd bd 08 43 6b 3e
       -0.0034489348 0.015381418 -0.12367477 0.22974789
000120 39 0f 31 be 03 c7 61 be fa cd 80 bd 52 e5 88 3d
       -0.17290963 -0.22048573 -0.06289287 0.066843644
000130 94 ac 86 3e 5b 99 65 3d 2e 23 4e 3d 6a c9 87 bd
       0.26303542 0.056054454 0.05032652 -0.066302136
000140 be 04 03 3e a9 ec 28 3e c9 54 41 bd 8e 6f b1 3d
       0.12794778 0.16496529 -0.047199998 0.086638555
000150 9e 03 fa 3c 62 4c 0a be 35 b4 52 3d 1b 67 4e 3e
       0.030519303 -0.135057 0.05144139 0.20156519
000160 0d 28 2c 3d 7d 08 19 bc b4 ed 6a 3c fb 23 a5 ba
       0.042030383 -0.009340403 0.014338899 -0.0012599224
000170 f3 7e 55 ba 21 66 54 3d a4 56 e9 3b f9 d0 17 3e
       -0.0008144222 0.05185521 0.007120924 0.1482581
000180 84 8c f2 3d ce 18 f9 bc 7b 5f fa 3d c1 ee 3e 3e
       0.118432075 -0.030407336 0.12225243 0.18645765
000190 d6 60 31 3e 52 fe e0 bc c1 25 f2 3d 13 21 80 bd
       0.17322096 -0.02746502 0.11823607 -0.062563084
0001a0 93 87 6a 3e a9 60 a2 3e f2 4d 85 bd f4 01 4d be
       0.2290328 0.3171437 -0.065090075 -0.20020276
0001b0 dc cd be be f0 01 ba 3c 04 35 2c be 7a 1c 64 be
       -0.37266433 0.022706002 -0.16817099 -0.22276488
0001c0 26 8f 9d bc 4b 80 a0 3d 45 51 a0 bb f2 bb 65 3e
       -0.019233298 0.0783697 -0.0048925006 0.22434977
0001d0 76 3d af 3d 18 d5 b1 3c e1 8e 27 3d e2 56 dc 3d
       0.085566446 0.021708056 0.040907744 0.10758759
0001e0 23 3a 24 3d 90 bc 2e 3e eb f0 1d be 1e 28 b6 bd
       0.040094506 0.17064118 -0.15423934 -0.088943705
0001f0 b1 ee ee bd c2 e7 22 be e3 d0 a6 be c4 e6 b7 3d
       -0.116666205 -0.15908721 -0.32581243 0.08979562
000200 29 d9 51 3d 5a c0 26 3e 90 23 4c 3e e1 4c 06 3e
       0.05123249 0.16284314 0.19935441 0.13115264
000210 b6 f9 bf bd dc 62 fb 3d 42 a3 64 3e 4a af 76 be
       -0.093738005 0.12274715 0.22327903 -0.24090305
000220 e5 b1 9e 3d e1 c5 d2 3d 37 24 0c bd 4a 69 27 3e
       0.077487744 0.10291649 -0.034214225 0.16348758
000230 93 ec 40 3d f5 16 14 3e 4a 2b 87 3c 18 1e a2 3c
       0.047100615 0.14461882 0.016500134 0.01978974
000240 51 7e 71 3e 62 a5 77 be 4f e7 06 3e 86 29 25 bd
       0.23583342 -0.24184182 0.13174175 -0.040322803
000250 41 33 8b bd 80 ce 20 be 39 4f c8 bd 56 6a 1a be
       -0.06796885 -0.15703773 -0.097807355 -0.15079626
000260 dc f5 91 3e 9c 99 82 3d 9b 2e 4c 3c e4 c8 45 3e
       0.28507888 0.06376955 0.0124622835 0.19314915
000270 2e 2d b3 3d 67 5c e0 bd 78 fb af bc 49 d4 e3 3d
       0.08748852 -0.10955124 -0.021482214 0.111244746
000280 9c fa 85 bd b0 c2 6d be b4 87 10 be a2 87 46 3e
       -0.065419406 -0.23218799 -0.14114267 0.19387677
000290 25 d1 c8 be 3b db 27 be 62 82 15 3e 62 af a5 3d
       -0.39222065 -0.16392224 0.14600518 0.08090092
0002a0 3c 2e 48 be e2 e8 6a 3e 94 91 87 bd 58 de 37 3c
       -0.19548887 0.229404 -0.06619564 0.0112224445
0002b0 d1 81 27 be bc 53 81 3e 24 bb 12 3e ac 88 77 3d
       -0.16358115 0.25259197 0.14329201 0.060433075
0002c0 5f 07 17 bd 3f 79 15 be c9 33 14 3e 0e fe d0 3d
       -0.036872264 -0.14597033 0.1447288 0.10204707
0002d0 d5 a6 ec bd ac 78 69 3e 95 96 02 bc 5f d3 b6 bd
       -0.11555258 0.22799939 -0.007970472 -0.089270346
0002e0 70 bd 68 bd fc 8d 20 3e fc fb f7 3c 85 e0 ab bd
       -0.056821287 0.15679163 0.030271523 -0.08392433
0002f0 ac a3 42 3e 75 1e 12 bd 9e 98 10 be 31 4b f9 bc
       0.19007748 -0.035673577 -0.14120719 -0.030431362
000300 64 2a 47 3d a9 8c 9c 3c 0c 01 20 3d 47 b6 5a 3e
       0.04862441 0.01911004 0.0390635 0.21358596
000310 4d dd 06 3d b4 88 11 be e7 16 8e be 2c 73 b7 bc
       0.032925893 -0.14212304 -0.27751848 -0.022393785
000320 46 a6 25 be 37 56 e1 3d 97 91 85 bd 4c b2 e0 bd
       -0.1617671 0.11002772 -0.0652191 -0.109715074
000330 9a 0f 84 bd 91 76 a1 bd d1 35 2f 3e 20 ca 4d 3d
       -0.06448288 -0.07883943 0.17110373 0.05024159
000340 52 36 9d be c8 f6 23 be 0a 30 96 be 3e c3 55 be
       -0.30705506 -0.16012108 -0.29333526 -0.2087526
000350 fc 80 96 bd ae 23 31 3e 15 ec 93 bd b8 f7 63 bd
       -0.073488206 0.17298767 -0.072227634 -0.055656165
000360 cb 7b 85 3d a6 38 8f 3d c5 c1 0f bd 97 96 d4 bb
       0.06517752 0.06993227 -0.035096902 -0.0064876783
000370 16 a1 3e be fe b6 3c 3d c1 3b c3 bc d5 98 e9 3d
       -0.18616137 0.046072952 -0.023832204 0.114061035
000380 05 dc 82 be 88 28 50 3e 64 ff 6f 3c e1 a6 99 bc
       -0.25558487 0.20327961 0.014648292 -0.018756332
000390 92 5b 8e 3e 99 8c fc bc 45 b2 95 3d e0 46 03 bd
       0.27804238 -0.030828761 0.07309393 -0.032050014
0003a0 af ff 60 3e 7e 24 2a bd 64 98 81 3e d1 75 c7 3e
       0.21972536 -0.041538708 0.25311577 0.38957074
0003b0 8d 51 23 bd 97 e2 69 bd 8f 2d 9c bd 2d 9c bc bb
       -0.039872695 -0.05710086 -0.07625877 -0.0057559223
0003c0 1f 90 d0 bd 5d 3d 9d 3d 77 b1 e7 bd 5d 04 08 be
       -0.10183739 0.0767772 -0.113131456 -0.13282914
0003d0 5c 9f 0a be ab 26 b0 be b7 9f 83 bd 4e ba f9 bc
       -0.13537353 -0.344045 -0.064269476 -0.030484345
0003e0 d8 38 6e bd ef 1d 05 be a3 66 94 3d ea 69 36 be
       -0.05815968 -0.129997 0.07246139 -0.1781384
0003f0 92 3a 01 3e b2 bd 83 3e 26 52 34 3e 4a f6 9f bd
       0.12619999 0.25730664 0.17609462 -0.07810648

attention_layers.0.out_proj.bias f4 [50]
000000 bd 84 47 be 7a 8a d6 bd 20 bd 7a 3d dc be 79 be
       -0.1948423 -0.10475631 0.06121552 -0.24389213
000010 f2 98 4f 3d 99 7e ef 3d 3f 54 81 3e 6b 03 7f 3c
       0.05068297 0.116940685 0.25259587 0.01556478
000020 db 68 76 3a 8b 98 af 3d 09 0f 25 3e 9d 8d 74 be
       0.000939978 0.08574017 0.16119017 -0.23882146
000030 a4 e6 c4 bc cc a3 af 3c 96 56 df 3d 7a be 28 be
       -0.02403576 0.02144041 0.10905187 -0.16478911
000040 15 42 15 be 4f 96 de b9 f8 e8 c9 3c 7c c6 03 3f
       -0.1457599 -0.00042455128 0.024647221 0.5147474
000050 46 86 ee bd bb f0 62 bd e5 af 57 be 74 53 f1 3d
       -0.116467044 -0.05540536 -0.21063192 0.117834955
000060 3f 94 ee 3c 27 f7 93 bd 20 4e 87 be c7 ba de bd
       0.029123424 -0.07224875 -0.26426792 -0.10875469
000070 c7 d4 8d 3e be f0 16 bd b9 88 dd 3c 50 c9 d9 bd
       0.277014 -0.036850683 0.027042734 -0.106341004
000080 f6 bd 14 be 97 95 3f 3d bd 18 2d 3e 96 a9 a1 bc
       -0.1452559 0.04677352 0.16903968 -0.019734185
000090 ee a8 b7 bc fd 0b e6 bd 48 fd fa bc 02 71 41 3e
       -0.02241942 -0.11232755 -0.030638352 0.18890765
0000a0 1a 1a 88 3e 56 3d 34 be 18 2f d6 bc 04 e3 6e 3e
       0.26582414 -0.17601523 -0.026145503 0.23328787
0000b0 cc e7 62 be fe 17 09 3d b1 6d 2a be 48 37 af bc
       -0.22158736 0.033470146 -0.16643406 -0.021388665
0000c0 73 a9 d5 3d f0 92 1b be
       0.104327105 -0.15192771

attention_layers.1.in_proj_weight f4 [150, 50]
000000 3b e0 dc bd 16 04 0c 3b 4c 13 f5 3c 7c 2a 0b 3d
       -0.10784956 0.002136474 0.029916428 0.033976063
000010 72 8a 69 bc cb 76 4b 3e 3f e1 ec bd 5b 7a 82 3d
       -0.014254199 0.19869535 -0.115664 0.06370994
000020 bd 94 9c 3c 4d b7 68 3d 75 2f a5 3d 6d 61 57 3c
       0.019113893 0.056815434 0.08065692 0.013145787
000030 a9 ee 73 be 74 5c ca bb bb 03 40 3d f1 43 b4 bc
       -0.2382151 -0.006175572 0.046878558 -0.022005053
000040 4d b4 14 3c 74 93 64 3d 83 d7 c9 bc 53 23 08 be
       0.00907619 0.055804685 -0.024638897 -0.13294725
000050 23 a3 0c bd 6e 60 4a 3d 6a 68 09 3e 02 91 27 bd
       -0.034335267 0.04940837 0.13418737 -0.040909775
000060 fc 3c 7d 3d 66 c5 99 3d 54 55 97 3d 33 21 c2 3d
       0.061825737 0.07508354 0.07389322 0.094789885
000070 55 17 c0 bd 7c 4f 9d 3c c8 48 43 be e4 2a 81 3d
       -0.0937945 0.01920294 -0.19070733 0.06307009
000080 88 ec aa 3d 02 67 40 3e 2a fc 26 be ac b9 98 3d
       0.08345896 0.18789294 -0.1630713 0.07457289
000090 df ba 67 bd 1f 24 fc bc 7f a7 f6 bd 54 cc 80 bd
       -0.0565747 -0.030778943 -0.12043666 -0.062889725
0000a0 19 d0 6f be ce ad 31 bd 18 5a 07 bd 00 b9 05 3d
       -0.23419227 -0.043378644 -0.033044904 0.032647133
0000b0 2c f3 c2 3d c6 07 45 3b 55 ed 2a bd d8 ef 37 3e
       0.095190376 0.0030064448 -0.041730244 0.17962587
0000c0 5d 9a 6b bd 4e 5c 13 3d d9 27 d8 bd 86 3d 32 3d
       -0.05752026 0.0359767 -0.10554475 0.043515705
0000d0 c3 a2 0b bd 3f fc d3 3d a3 7b 19 bd 47 14 0d 3e
       -0.03409077 0.103508465 -0.037471425 0.13777266
0000e0 42 51 1a 3e e5 54 e9 bc 1c f7 b6 bb d4 20 5a bd
       0.1507006 -0.028482864 -0.005583657 -0.053253964
0000f0 23 63 e4 bd 53 0d a1 3d 77 58 11 bc d0 6f 8c 3e
       -0.11151721 0.078638695 -0.008871189 0.27429056
000100 ce c1 f0 3c c8 cc 17 3e 38 bd 14 3e 27 03 06 be
       0.029389288 0.14824212 0.14525306 -0.1308714
000110 9d b6 ec bd 49 1c 01 3e c3 fc 7b be 0f 6f 9b bb
       -0.11558268 0.12608446 -0.2460814 -0.004743464
000120 5d 93 05 bd 3e bc 1e 3d 63 08 58 bd a4 90 ef 3d
       -0.03261124 0.03875374 -0.052742373 0.1169751
000130 97 5a 33 3d 5c ab 02 bd ae 4d 02 bd 23 46 fa 3d
       0.043787565 -0.031901702 -0.031812362 0.12220409
000140 8c 39 58 bd 59 c7 b1 3d b4 54 cf bc f6 0c ce bc
       -0.052789256 0.08680601 -0.025308944 -0.025152665
000150 6b 56 f9 3d b5 14 3a 3c 4a 25 ec bd ff 75 c4 3d
       0.12174686 0.011357476 -0.1153055 0.095928185
000160 1c 9f a3 3d 5e 00 c4 3d d0 46 96 bd d4 b8 06 3d
       0.07989332 0.095703825 -0.07337725 0.03289111
000170 62 66 e3 3d c7 dd be 3d 9e 0b 92 bd 5a 0c fd 3d
       0.11103512 0.093196444 -0.07131122 0.123558715
000180 8b eb 8d bd 65 1c ca bd 67 e9 e4 bc 20 d1 c5 bd
       -0.06929692 -0.09868697 -0.027943326 -0.09659028
000190 4b ab 58 3e 17 00 91 3c f6 37 22 be 89 df 16 3d
       0.21159093 0.017700238 -0.1584166 0.036834273
0001a0 c7 66 37 bd e1 45 d6 bd b9 eb be bd ed bb f8 bd
       -0.04477575 -0.10462547 -0.09322304 -0.12145219
0001b0 1f 41 2d 3e 2a f3 51 3c 6a 67 01 be 43 3c d4 bc
       0.16919373 0.0128143225 -0.12637106 -0.025907641
0001c0 c7 3d d2 3d 87 19 23 be ad e8 d6 3d 9a 6b 83 3e
       0.10265689 -0.15927707 0.10493598 0.2566803
0001d0 e6 76 e5 3a 20 91 fb bd 8c 36 1f 3c 66 d3 84 bd
       0.0017506748 -0.1228354 0.009717595 -0.064856336
0001e0 e6 14 11 be c1 f5 ac 3d b8 9c a6 3d 25 c7 fa 3d
       -0.14168128 0.08445311 0.081353605 0.12245015
0001f0 96 1c 82 ba b8 b6 96 bd 7e 7d 85 bd e2 34 e8 b9
       -0.0009926732 -0.073590696 -0.06518076 -0.0004428989
000200 b3 c5 88 be 9a c9 1f bd fc 93 9f 3b 89 e2 aa 3d
       -0.26713333 -0.03901062 0.004869936 0.083439894
000210 c6 27 9b 3d ad 84 7a bc 4e 14 9d bc 9b 9e 35 3d
       0.075759456 -0.015290421 -0.019174721 0.04434071
000220 82 09 38 3e 95 31 ff 3d 4c ba 65 3d f1 a6 8a 3d
       0.17972377 0.12460629 0.05608587 0.06770123
000230 48 f0 80 bd a3 1e 89 bc f0 6d 65 bd 41 e8 62 bc
       -0.0629583 -0.016738242 -0.056013048 -0.013849319
000240 4d b2 bf bc 07 e2 a0 bd de e4 2f be 81 b9 10 3c
       -0.02340045 -0.07855611 -0.1717715 0.00883329
000250 b4 26 a3 3d ca da 0b 3e 91 61 00 3e ff 45 5b be
       0.079663664 0.1365768 0.12537219 -0.2141342
000260 43 e4 bd bd 52 ad b3 bd 79 0f a8 3c 43 d7 23 be
       -0.09272053 -0.087732926 0.02051519 -0.16000085
000270 12 81 9c 3d 37 43 86 3d 35 4b 83 3d 50 d9 16 3d
       0.07641806 0.06555789 0.06410829 0.03682834
000280 8e 44 0d 3e 9e 8d 1a bd fe c3 f2 3d 4e b3 3d 3c
       0.13795683 -0.037732713 0.11853789 0.011578394
000290 e7 52 e6 3c 85 5c cd 3b 12 ce a0 bd fd 34 03 3e
       0.028115703 0.0062671327 -0.07851805 0.12813182
0002a0 fe f4 7e bd 68 12 25 3e af 92 e9 3d 37 50 b3 bd
       -0.06224536 0.16120303 0.11404931 -0.08755534
0002b0 cd 1e 23 be db 7f b5 bd 7f 95 9f bd 7a 2b a4 bd
       -0.15929718 -0.08862277 -0.07792186 -0.08016105
0002c0 b7 f2 22 3d 9c d0 7e 3b b0 fc 7f b9 f6 79 8b 3c
       0.039782252 0.0038881665 -0.00024412828 0.017025929
0002d0 fd 17 4e bd 9f ab 1c 3b 68 29 31 be ed aa 5c 3d
       -0.050315846 0.0023906005 -0.17300951 0.053873945
0002e0 de 1f 3d 3e 00 ac 0d 3e 25 1b 1b bd 22 de 34 be
       0.18469188 0.13835144 -0.037867684 -0.17662862
0002f0 0d 6f 23 3e 08 61 9a bc 7c 04 c3 bc a0 f8 e6 3d
       0.15960331 -0.018845096 -0.02380585 0.1127789
000300 cf 71 e5 3d 7a a5 c5 3b 79 8a d0 bd 9a 65 a0 3d
       0.11203348 0.0060316892 -0.101826616 0.07831879
000310 a8 93 b1 3d 9e 6f 02 be e4 01 3f 3e 59 ee d3 3d
       0.08670741 -0.12737891 0.18653065 0.103481956
000320 49 1a 2c 3e 36 17 bc bd ff 78 69 be 36 76 fe bc
       0.16806902 -0.09184115 -0.22800063 -0.031062227
000330 23 ad 97 ba b3 a6 e9 bc be a4 d2 bd 01 ef 14 be
       -0.0011571985 -0.028521871 -0.10285328 -0.14544298
000340 91 2b e1 3d d7 72 8c bd 64 95 03 3e c9 df af 3c
       0.10994638 -0.068578415 0.12849957 0.021469014
000350 ec d8 ad bd b3 34 e5 bd db 17 39 3e 95 18 8f 3d
       -0.0848864 -0.11191692 0.18075506 0.069871105
000360 4a 02 d1 3c 6b b3 dc bc 77 57 70 3d 76 1f 1e bd
       0.025513787 -0.026941022 0.058677163 -0.038604222
000370 e7 2e 34 3e 39 ba 06 bd 66 b1 96 3d 3f 52 77 3d
       0.17596017 -0.03289244 0.07358055 0.06038117
000380 a3 30 8a bd f6 40 c1 3d 48 bc 11 3e e6 fc c5 3d
       -0.06747558 0.094362184 0.1423198 0.09667377
000390 36 fd 84 be 10 c1 6c bd 0c ea 72 bd 65 62 f1 3d
       -0.25974435 -0.057801306 -0.059305236 0.117863454
0003a0 6f 28 b5 3d 4e b6 9f 3c 88 82 b1 3d da 19 24 be
       0.08845603 0.01949611 0.08667475 -0.16025487
0003b0 cf 37 95 bd 7a 44 94 bd 34 8b 89 3d 11 01 fa bc
       -0.07286035 -0.07239623 0.06716004 -0.030518087
0003c0 a3 e0 3f 3d 02 e3 6c be 31 fb d3 3d d0 48 06 bd
       0.04684509 -0.23133472 0.10350645 -0.032784283
0003d0 b5 3f 1d 3e f2 c3 cf 3c 2a a1 78 bc 3b e4 cc bd
       0.15356334 0.025361989 -0.015175143 -0.10004469
0003e0 87 ca c7 3c 57 95 10 3c 40 2d e5 3c 98 df 9b bd
       0.024388565 0.008824668 0.027975678 -0.076110065
0003f0 58 b2 20 bc 81 46 72 3c 36 6d 4f 3e 9c 36 37 bd
       -0.009808145 0.014787317 0.20256504 -0.044729814
